Neural Network Tools for STM32AI v1.7.0 (STM.ai v8.0.1-19451)
Created date          : 2024-06-09 20:36:28
Parameters            : generate --name autonomoussafetysystem -m C:/Users/Daniel/Downloads/st_yolo_lc_v1_192_int8.tflite --type tflite --compression high --verbosity 1 --workspace C:\Users\Daniel\AppData\Local\Temp\mxAI_workspace272325455440014886347828280516402 --output C:\Users\Daniel\.stm32cubemx\network_output --allocate-inputs --series stm32f4 -O ram --allocate-outputs

Exec/report summary (generate)
------------------------------------------------------------------------------------------------------------
model file         :   C:\Users\Daniel\Downloads\st_yolo_lc_v1_192_int8.tflite                              
type               :   tflite                                                                               
c_name             :   autonomoussafetysystem                                                               
compression        :   high                                                                                 
options            :   allocate-inputs, allocate-outputs                                                    
optimization       :   ram                                                                                  
target/series      :   stm32f4                                                                              
workspace dir      :   C:\Users\Daniel\AppData\Local\Temp\mxAI_workspace272325455440014886347828280516402   
output dir         :   C:\Users\Daniel\.stm32cubemx\network_output                                          
model_fmt          :   ss/sa per-channel                                                                    
model_name         :   st_yolo_lc_v1_192_int8                                                               
model_hash         :   56fb4a29ec9f39293666b86d62424bab                                                     
params #           :   277,566 items (276.73 KiB)                                                           
------------------------------------------------------------------------------------------------------------
input 1/1          :   'serving_default_image_input0' (domain:activations/**default**)                      
                   :   110592 items, 108.00 KiB, ai_u8, s=0.00392157, zp=0, (1,192,192,3)                   
output 1/1         :   'conversion_15' (domain:activations/**default**)                                     
                   :   4320 items, 16.88 KiB, ai_float, float, (1,12,12,30)                                 
macc               :   61,905,230                                                                           
weights (ro)       :   283,368 B (276.73 KiB) (1 segment) / -826,896(-74.5%) vs float model                 
activations (rw)   :   155,040 B (151.41 KiB) (1 segment) *                                                 
ram (total)        :   155,040 B (151.41 KiB) = 155,040 + 0 + 0                                             
------------------------------------------------------------------------------------------------------------
(*) 'input'/'output' buffers can be used from the activations buffer

Model name - st_yolo_lc_v1_192_int8 ['serving_default_image_input0'] ['conversion_15']
------ ---------------------------------------- ----------------------- --------------- ------------ ------------------------------ --- ------------------ ---------------------- -------------------------- 
m_id   layer (type,original)                    oshape                  param/size              macc                   connected to   | c_size             c_macc                 c_type                     
------ ---------------------------------------- ----------------------- --------------- ------------ ------------------------------ --- ------------------ ---------------------- -------------------------- 
0      serving_default_image_input0 (Input, )   [b:1,h:192,w:192,c:3]                                                                 |                    +221,184(+100.0%)      converter_oi8[0]           
       conversion_0 (Conversion, QUANTIZE)      [b:1,h:192,w:192,c:3]                        221,184   serving_default_image_input0   |                    -221,184(-100.0%)      
------ ---------------------------------------- ----------------------- --------------- ------------ ------------------------------ --- ------------------ ---------------------- -------------------------- 
1      conv2d_1 (Conv2D, CONV_2D)               [b:1,h:96,w:96,c:16]    448/496            3,981,328                   conversion_0   |                                           optimized_conv2d_oi8[1]    
       nl_1_nl (Nonlinearity, CONV_2D)          [b:1,h:96,w:96,c:16]                         147,456                       conv2d_1   |                    -147,456(-100.0%)      
------ ---------------------------------------- ----------------------- --------------- ------------ ------------------------------ --- ------------------ ---------------------- -------------------------- 
2      conv2d_2 (Conv2D, CONV_2D)               [b:1,h:48,w:48,c:32]    4,640/4,736       10,616,864                        nl_1_nl   |                                           conv2d_oi8[2]              
       nl_2_nl (Nonlinearity, CONV_2D)          [b:1,h:48,w:48,c:32]                          73,728                       conv2d_2   |                    -73,728(-100.0%)       
------ ---------------------------------------- ----------------------- --------------- ------------ ------------------------------ --- ------------------ ---------------------- -------------------------- 
3      conv2d_3 (Conv2D, CONV_2D)               [b:1,h:24,w:24,c:64]    18,496/18,688     10,616,896                        nl_2_nl   |                                           pad_oi8/conv2d_oi8[3, 4]   
       nl_3_nl (Nonlinearity, CONV_2D)          [b:1,h:24,w:24,c:64]                          36,864                       conv2d_3   |                    -36,864(-100.0%)       
------ ---------------------------------------- ----------------------- --------------- ------------ ------------------------------ --- ------------------ ---------------------- -------------------------- 
4      conv2d_4 (Conv2D, CONV_2D)               [b:1,h:12,w:12,c:128]   73,856/74,240     10,616,960                        nl_3_nl   |                                           pad_oi8/conv2d_oi8[5, 6]   
       nl_4_nl (Nonlinearity, CONV_2D)          [b:1,h:12,w:12,c:128]                         18,432                       conv2d_4   |                    -18,432(-100.0%)       
------ ---------------------------------------- ----------------------- --------------- ------------ ------------------------------ --- ------------------ ---------------------- -------------------------- 
5      conv2d_5 (Conv2D, DEPTHWISE_CONV_2D)     [b:1,h:12,w:12,c:128]   1,280/1,664          166,016                        nl_4_nl   |                                           conv2d_oi8[7]              
------ ---------------------------------------- ----------------------- --------------- ------------ ------------------------------ --- ------------------ ---------------------- -------------------------- 
6      conv2d_6 (Conv2D, CONV_2D)               [b:1,h:12,w:12,c:256]   33,024/33,792      4,718,848                       conv2d_5   |                                           conv2d_oi8[8]              
       nl_6_nl (Nonlinearity, CONV_2D)          [b:1,h:12,w:12,c:256]                         36,864                       conv2d_6   |                    -36,864(-100.0%)       
------ ---------------------------------------- ----------------------- --------------- ------------ ------------------------------ --- ------------------ ---------------------- -------------------------- 
7      conv2d_7 (Conv2D, DEPTHWISE_CONV_2D)     [b:1,h:12,w:12,c:256]   2,560/3,328          332,032                        nl_6_nl   |                                           conv2d_oi8[9]              
------ ---------------------------------------- ----------------------- --------------- ------------ ------------------------------ --- ------------------ ---------------------- -------------------------- 
8      conv2d_8 (Conv2D, CONV_2D)               [b:1,h:12,w:12,c:256]   65,792/66,560      9,437,440                       conv2d_7   | -66,560(-100.0%)   -9,437,440(-100.0%)    
       nl_8_nl (Nonlinearity, CONV_2D)          [b:1,h:12,w:12,c:256]                         36,864                       conv2d_8   |                    -36,864(-100.0%)       
------ ---------------------------------------- ----------------------- --------------- ------------ ------------------------------ --- ------------------ ---------------------- -------------------------- 
9      pool_9 (Pool, MAX_POOL_2D)               [b:1,h:12,w:12,c:256]                        147,456                        nl_8_nl   | +66,560(+100.0%)   +9,437,440(+6400.2%)   optimized_conv2d_oi8[10]   
------ ---------------------------------------- ----------------------- --------------- ------------ ------------------------------ --- ------------------ ---------------------- -------------------------- 
10     conv2d_10 (Conv2D, DEPTHWISE_CONV_2D)    [b:1,h:12,w:12,c:256]   2,560/3,328          332,032                         pool_9   |                                           conv2d_oi8[11]             
------ ---------------------------------------- ----------------------- --------------- ------------ ------------------------------ --- ------------------ ---------------------- -------------------------- 
11     conv2d_11 (Conv2D, CONV_2D)              [b:1,h:12,w:12,c:128]   32,896/33,280      4,718,720                      conv2d_10   |                                           conv2d_oi8[12]             
       nl_11_nl (Nonlinearity, CONV_2D)         [b:1,h:12,w:12,c:128]                         18,432                      conv2d_11   |                    -18,432(-100.0%)       
------ ---------------------------------------- ----------------------- --------------- ------------ ------------------------------ --- ------------------ ---------------------- -------------------------- 
12     conv2d_12 (Conv2D, DEPTHWISE_CONV_2D)    [b:1,h:12,w:12,c:128]   1,280/1,664          166,016                       nl_11_nl   |                                           conv2d_oi8[13]             
------ ---------------------------------------- ----------------------- --------------- ------------ ------------------------------ --- ------------------ ---------------------- -------------------------- 
13     conv2d_13 (Conv2D, CONV_2D)              [b:1,h:12,w:12,c:256]   33,024/33,792      4,718,848                      conv2d_12   |                                           conv2d_oi8[14]             
       nl_13_nl (Nonlinearity, CONV_2D)         [b:1,h:12,w:12,c:256]                         36,864                      conv2d_13   |                    -36,864(-100.0%)       
------ ---------------------------------------- ----------------------- --------------- ------------ ------------------------------ --- ------------------ ---------------------- -------------------------- 
14     conv2d_14 (Conv2D, CONV_2D)              [b:1,h:12,w:12,c:30]    7,710/7,800        1,105,950                       nl_13_nl   |                                           conv2d_oi8[15]             
------ ---------------------------------------- ----------------------- --------------- ------------ ------------------------------ --- ------------------ ---------------------- -------------------------- 
15     conversion_15 (Conversion, DEQUANTIZE)   [b:1,h:12,w:12,c:30]                           8,640                      conv2d_14   |                                           converter_of32[o][16]      
------ ---------------------------------------- ----------------------- --------------- ------------ ------------------------------ --- ------------------ ---------------------- -------------------------- 
model/c-model: macc=62,310,734/61,905,230 -405,504(-0.7%) weights=283,368/283,368  activations=--/155,040 io=--/0



Generated C-graph summary
------------------------------------------------------------------------------------------------------------------------
model name            : st_yolo_lc_v1_192_int8
c-name                : autonomoussafetysystem
c-node #              : 17
c-array #             : 58
activations size      : 155040 (1 segment)
weights size          : 283368 (1 segment)
macc                  : 61905230
inputs                : ['serving_default_image_input0_output']
outputs               : ['conversion_15_output']

C-Arrays (58)
------ ------------------------------------- --------------- ------------------------- --------------- -------------- --------- 
c_id   name (*_array)                        item/size       domain/mem-pool           c-type          fmt            comment   
------ ------------------------------------- --------------- ------------------------- --------------- -------------- --------- 
0      conv2d_4_weights                      73728/73728     weights/weights           const int8_t    ss8/ch(128)              
1      conv2d_11_scratch0                    2304/2304       activations/**default**   int8_t          s8                       
2      conv2d_4_bias                         128/512         weights/weights           const int32_t   ss32/ch(128)             
3      conv2d_5_weights                      1152/1152       weights/weights           const int8_t    ss8/ch(128)              
4      conv2d_12_scratch0                    4737/4737       activations/**default**   int8_t          s8                       
5      conv2d_4_pad_before_output            43264/43264     activations/**default**   int8_t          sa8                      
6      conv2d_5_bias                         128/512         weights/weights           const int32_t   ss32/ch(128)             
7      conv2d_13_scratch0                    3072/3072       activations/**default**   int8_t          s8                       
8      conv2d_3_pad_before_output            80000/80000     activations/**default**   int8_t          sa8                      
9      conv2d_6_weights                      32768/32768     weights/weights           const int8_t    ss8/ch(256)              
10     conv2d_14_scratch0                    1324/1324       activations/**default**   int8_t          s8                       
11     conv2d_6_bias                         256/1024        weights/weights           const int32_t   ss32/ch(256)             
12     conv2d_7_weights                      2304/2304       weights/weights           const int8_t    ss8/ch(256)              
13     conv2d_7_bias                         256/1024        weights/weights           const int32_t   ss32/ch(256)             
14     conv2d_8_weights                      65536/65536     weights/weights           const int8_t    ss8/ch(256)              
15     conv2d_8_bias                         256/1024        weights/weights           const int32_t   ss32/ch(256)             
16     conv2d_10_weights                     2304/2304       weights/weights           const int8_t    ss8/ch(256)              
17     serving_default_image_input0_output   110592/110592   activations/**default**   uint8_t         ua8            /input    
18     conv2d_10_bias                        256/1024        weights/weights           const int32_t   ss32/ch(256)             
19     conversion_0_output                   110592/110593   activations/**default**   int8_t          sa8                      
20     conv2d_1_output                       147456/147456   activations/**default**   int8_t          sa8                      
21     conv2d_11_weights                     32768/32768     weights/weights           const int8_t    ss8/ch(128)              
22     conv2d_2_output                       73728/73728     activations/**default**   int8_t          sa8                      
23     conv2d_3_output                       36864/36864     activations/**default**   int8_t          sa8                      
24     conv2d_11_bias                        128/512         weights/weights           const int32_t   ss32/ch(128)             
25     conv2d_4_output                       18432/18432     activations/**default**   int8_t          sa8                      
26     conv2d_5_output                       18432/18432     activations/**default**   int8_t          sa8                      
27     conv2d_12_weights                     1152/1152       weights/weights           const int8_t    ss8/ch(128)              
28     conv2d_6_output                       36864/36864     activations/**default**   int8_t          sa8                      
29     conv2d_7_output                       36864/36864     activations/**default**   int8_t          sa8                      
30     conv2d_12_bias                        128/512         weights/weights           const int32_t   ss32/ch(128)             
31     conv2d_8_output                       36864/36864     activations/**default**   int8_t          sa8                      
32     conv2d_10_output                      36864/36864     activations/**default**   int8_t          sa8                      
33     conv2d_13_weights                     32768/32768     weights/weights           const int8_t    ss8/ch(256)              
34     conv2d_11_output                      18432/18432     activations/**default**   int8_t          sa8                      
35     conv2d_12_output                      18432/18432     activations/**default**   int8_t          sa8                      
36     conv2d_13_bias                        256/1024        weights/weights           const int32_t   ss32/ch(256)             
37     conv2d_13_output                      36864/36864     activations/**default**   int8_t          sa8                      
38     conv2d_14_output                      4320/4320       activations/**default**   int8_t          sa8                      
39     conv2d_14_weights                     7680/7680       weights/weights           const int8_t    ss8/ch(30)               
40     conversion_15_output                  4320/17280      activations/**default**   float           float32        /output   
41     conv2d_14_bias                        30/120          weights/weights           const int32_t   ss32/ch(30)              
42     conv2d_1_scratch0                     1196/1196       activations/**default**   int8_t          s8                       
43     conv2d_2_scratch0                     6016/6016       activations/**default**   int8_t          s8                       
44     conv2d_3_scratch0                     6912/6912       activations/**default**   int8_t          s8                       
45     conv2d_4_scratch0                     8704/8704       activations/**default**   int8_t          s8                       
46     conv2d_5_scratch0                     4737/4737       activations/**default**   int8_t          s8                       
47     conv2d_1_weights                      432/432         weights/weights           const int8_t    ss8/ch(16)               
48     conv2d_6_scratch0                     3072/3072       activations/**default**   int8_t          s8                       
49     conv2d_1_bias                         16/64           weights/weights           const int32_t   ss32/ch(16)              
50     conv2d_7_scratch0                     9473/9473       activations/**default**   int8_t          s8                       
51     conv2d_2_weights                      4608/4608       weights/weights           const int8_t    ss8/ch(32)               
52     conv2d_2_bias                         32/128          weights/weights           const int32_t   ss32/ch(32)              
53     conv2d_8_scratch0                     3584/3584       activations/**default**   int8_t          s8                       
54     conv2d_3_weights                      18432/18432     weights/weights           const int8_t    ss8/ch(64)               
55     conv2d_8_scratch1                     6144/6144       activations/**default**   int8_t          sa8                      
56     conv2d_3_bias                         64/256          weights/weights           const int32_t   ss32/ch(64)              
57     conv2d_10_scratch0                    9473/9473       activations/**default**   int8_t          s8                       
------ ------------------------------------- --------------- ------------------------- --------------- -------------- --------- 

C-Layers (17)
------ --------------------- ---- ------------------- ---------- ------- ---------------------------------------- -------------------- 
c_id   name (*_layer)        id   layer_type          macc       rom     tensors                                  shape (array id)     
------ --------------------- ---- ------------------- ---------- ------- ---------------------------------------- -------------------- 
0      conversion_0          0    converter           221184     0       I: serving_default_image_input0_output   (1,192,192,3) (17)   
                                                                         O: conversion_0_output                   (1,192,192,3) (19)   
------ --------------------- ---- ------------------- ---------- ------- ---------------------------------------- -------------------- 
1      conv2d_1              1    optimized_conv2d    3981328    496     I: conversion_0_output                   (1,192,192,3) (19)   
                                                                         S: conv2d_1_scratch0                                          
                                                                         W: conv2d_1_weights                      (3,16,3,3) (47)      
                                                                         W: conv2d_1_bias                         (1,1,1,16) (49)      
                                                                         O: conv2d_1_output                       (1,96,96,16) (20)    
------ --------------------- ---- ------------------- ---------- ------- ---------------------------------------- -------------------- 
2      conv2d_2              2    conv2d              10616864   4736    I: conv2d_1_output                       (1,96,96,16) (20)    
                                                                         S: conv2d_2_scratch0                                          
                                                                         W: conv2d_2_weights                      (16,32,3,3) (51)     
                                                                         W: conv2d_2_bias                         (1,1,1,32) (52)      
                                                                         O: conv2d_2_output                       (1,48,48,32) (22)    
------ --------------------- ---- ------------------- ---------- ------- ---------------------------------------- -------------------- 
3      conv2d_3_pad_before   3    pad                 0          0       I: conv2d_2_output                       (1,48,48,32) (22)    
                                                                         O: conv2d_3_pad_before_output            (1,50,50,32) (8)     
------ --------------------- ---- ------------------- ---------- ------- ---------------------------------------- -------------------- 
4      conv2d_3              3    conv2d              10616896   18688   I: conv2d_3_pad_before_output            (1,50,50,32) (8)     
                                                                         S: conv2d_3_scratch0                                          
                                                                         W: conv2d_3_weights                      (32,64,3,3) (54)     
                                                                         W: conv2d_3_bias                         (1,1,1,64) (56)      
                                                                         O: conv2d_3_output                       (1,24,24,64) (23)    
------ --------------------- ---- ------------------- ---------- ------- ---------------------------------------- -------------------- 
5      conv2d_4_pad_before   4    pad                 0          0       I: conv2d_3_output                       (1,24,24,64) (23)    
                                                                         O: conv2d_4_pad_before_output            (1,26,26,64) (5)     
------ --------------------- ---- ------------------- ---------- ------- ---------------------------------------- -------------------- 
6      conv2d_4              4    conv2d              10616960   74240   I: conv2d_4_pad_before_output            (1,26,26,64) (5)     
                                                                         S: conv2d_4_scratch0                                          
                                                                         W: conv2d_4_weights                      (64,128,3,3) (0)     
                                                                         W: conv2d_4_bias                         (1,1,1,128) (2)      
                                                                         O: conv2d_4_output                       (1,12,12,128) (25)   
------ --------------------- ---- ------------------- ---------- ------- ---------------------------------------- -------------------- 
7      conv2d_5              5    conv2d              166016     1664    I: conv2d_4_output                       (1,12,12,128) (25)   
                                                                         S: conv2d_5_scratch0                                          
                                                                         W: conv2d_5_weights                      (128,1,3,3) (3)      
                                                                         W: conv2d_5_bias                         (1,1,1,128) (6)      
                                                                         O: conv2d_5_output                       (1,12,12,128) (26)   
------ --------------------- ---- ------------------- ---------- ------- ---------------------------------------- -------------------- 
8      conv2d_6              6    conv2d              4718848    33792   I: conv2d_5_output                       (1,12,12,128) (26)   
                                                                         S: conv2d_6_scratch0                                          
                                                                         W: conv2d_6_weights                      (128,256,1,1) (9)    
                                                                         W: conv2d_6_bias                         (1,1,1,256) (11)     
                                                                         O: conv2d_6_output                       (1,12,12,256) (28)   
------ --------------------- ---- ------------------- ---------- ------- ---------------------------------------- -------------------- 
9      conv2d_7              7    conv2d              332032     3328    I: conv2d_6_output                       (1,12,12,256) (28)   
                                                                         S: conv2d_7_scratch0                                          
                                                                         W: conv2d_7_weights                      (256,1,3,3) (12)     
                                                                         W: conv2d_7_bias                         (1,1,1,256) (13)     
                                                                         O: conv2d_7_output                       (1,12,12,256) (29)   
------ --------------------- ---- ------------------- ---------- ------- ---------------------------------------- -------------------- 
10     conv2d_8              9    optimized_conv2d    9584896    66560   I: conv2d_7_output                       (1,12,12,256) (29)   
                                                                         S: conv2d_8_scratch0                                          
                                                                         S: conv2d_8_scratch1                                          
                                                                         W: conv2d_8_weights                      (256,256,1,1) (14)   
                                                                         W: conv2d_8_bias                         (1,1,1,256) (15)     
                                                                         O: conv2d_8_output                       (1,12,12,256) (31)   
------ --------------------- ---- ------------------- ---------- ------- ---------------------------------------- -------------------- 
11     conv2d_10             10   conv2d              332032     3328    I: conv2d_8_output                       (1,12,12,256) (31)   
                                                                         S: conv2d_10_scratch0                                         
                                                                         W: conv2d_10_weights                     (256,1,3,3) (16)     
                                                                         W: conv2d_10_bias                        (1,1,1,256) (18)     
                                                                         O: conv2d_10_output                      (1,12,12,256) (32)   
------ --------------------- ---- ------------------- ---------- ------- ---------------------------------------- -------------------- 
12     conv2d_11             11   conv2d              4718720    33280   I: conv2d_10_output                      (1,12,12,256) (32)   
                                                                         S: conv2d_11_scratch0                                         
                                                                         W: conv2d_11_weights                     (256,128,1,1) (21)   
                                                                         W: conv2d_11_bias                        (1,1,1,128) (24)     
                                                                         O: conv2d_11_output                      (1,12,12,128) (34)   
------ --------------------- ---- ------------------- ---------- ------- ---------------------------------------- -------------------- 
13     conv2d_12             12   conv2d              166016     1664    I: conv2d_11_output                      (1,12,12,128) (34)   
                                                                         S: conv2d_12_scratch0                                         
                                                                         W: conv2d_12_weights                     (128,1,3,3) (27)     
                                                                         W: conv2d_12_bias                        (1,1,1,128) (30)     
                                                                         O: conv2d_12_output                      (1,12,12,128) (35)   
------ --------------------- ---- ------------------- ---------- ------- ---------------------------------------- -------------------- 
14     conv2d_13             13   conv2d              4718848    33792   I: conv2d_12_output                      (1,12,12,128) (35)   
                                                                         S: conv2d_13_scratch0                                         
                                                                         W: conv2d_13_weights                     (128,256,1,1) (33)   
                                                                         W: conv2d_13_bias                        (1,1,1,256) (36)     
                                                                         O: conv2d_13_output                      (1,12,12,256) (37)   
------ --------------------- ---- ------------------- ---------- ------- ---------------------------------------- -------------------- 
15     conv2d_14             14   conv2d              1105950    7800    I: conv2d_13_output                      (1,12,12,256) (37)   
                                                                         S: conv2d_14_scratch0                                         
                                                                         W: conv2d_14_weights                     (256,30,1,1) (39)    
                                                                         W: conv2d_14_bias                        (1,1,1,30) (41)      
                                                                         O: conv2d_14_output                      (1,12,12,30) (38)    
------ --------------------- ---- ------------------- ---------- ------- ---------------------------------------- -------------------- 
16     conversion_15         15   converter           8640       0       I: conv2d_14_output                      (1,12,12,30) (38)    
                                                                         O: conversion_15_output                  (1,12,12,30) (40)    
------ --------------------- ---- ------------------- ---------- ------- ---------------------------------------- -------------------- 



Number of operations per c-layer
------- ------ ----------------------------- ------------ ------------- --------- ---------- 
c_id    m_id   name (type)                            #op          type    #param   sparsity 
------- ------ ----------------------------- ------------ ------------- --------- ---------- 
0       0      conversion_0 (converter)           221,184    smul_u8_s8           
1       1      conv2d_1 (optimized_conv2d)      3,981,328    smul_s8_s8       448     0.0045 
2       2      conv2d_2 (conv2d)               10,616,864    smul_s8_s8     4,640     0.0226 
3       3      conv2d_3_pad_before (pad)                0    smul_s8_s8           
4       3      conv2d_3 (conv2d)               10,616,896    smul_s8_s8    18,496     0.0411 
5       4      conv2d_4_pad_before (pad)                0    smul_s8_s8           
6       4      conv2d_4 (conv2d)               10,616,960    smul_s8_s8    73,856     0.0382 
7       5      conv2d_5 (conv2d)                  166,016    smul_s8_s8     1,280     0.0094 
8       6      conv2d_6 (conv2d)                4,718,848    smul_s8_s8    33,024     0.0172 
9       7      conv2d_7 (conv2d)                  332,032    smul_s8_s8     2,560     0.0109 
10      9      conv2d_8 (optimized_conv2d)      9,584,896    smul_s8_s8    65,792     0.0193 
11      10     conv2d_10 (conv2d)                 332,032    smul_s8_s8     2,560     0.0086 
12      11     conv2d_11 (conv2d)               4,718,720    smul_s8_s8    32,896     0.0276 
13      12     conv2d_12 (conv2d)                 166,016    smul_s8_s8     1,280     0.0094 
14      13     conv2d_13 (conv2d)               4,718,848    smul_s8_s8    33,024     0.0138 
15      14     conv2d_14 (conv2d)               1,105,950    smul_s8_s8     7,710     0.1436 
16      15     conversion_15 (converter)            8,640   smul_s8_f32           
------- ------ ----------------------------- ------------ ------------- --------- ---------- 
total                                          61,905,230                 277,566     0.0291 

Number of operation types
---------------- ------------ ----------- 
operation type              #           % 
---------------- ------------ ----------- 
smul_u8_s8            221,184        0.4% 
smul_s8_s8         61,675,406       99.6% 
smul_s8_f32             8,640        0.0% 

Complexity report (model)
------ ------------------------------ ------------------------- ------------------------- -------- 
m_id   name                           c_macc                    c_rom                     c_id     
------ ------------------------------ ------------------------- ------------------------- -------- 
0      serving_default_image_input0   |                  0.4%   |                  0.0%   [0]      
1      conv2d_1                       ||||||             6.4%   |                  0.2%   [1]      
2      conv2d_2                       |||||||||||||||   17.2%   |                  1.7%   [2]      
3      conv2d_3                       |||||||||||||||   17.2%   ||||               6.6%   [3, 4]   
4      conv2d_4                       ||||||||||||||||  17.2%   ||||||||||||||||  26.2%   [5, 6]   
5      conv2d_5                       |                  0.3%   |                  0.6%   [7]      
6      conv2d_6                       |||||||            7.6%   |||||||           11.9%   [8]      
7      conv2d_7                       |                  0.5%   |                  1.2%   [9]      
9      pool_9                         ||||||||||||||    15.5%   ||||||||||||||    23.5%   [10]     
10     conv2d_10                      |                  0.5%   |                  1.2%   [11]     
11     conv2d_11                      |||||||            7.6%   |||||||           11.7%   [12]     
12     conv2d_12                      |                  0.3%   |                  0.6%   [13]     
13     conv2d_13                      |||||||            7.6%   |||||||           11.9%   [14]     
14     conv2d_14                      ||                 1.8%   ||                 2.8%   [15]     
15     conversion_15                  |                  0.0%   |                  0.0%   [16]     
------ ------------------------------ ------------------------- ------------------------- -------- 
macc=61,905,230 weights=283,368 act=155,040 ram_io=0

Generated files (7)
---------------------------------------------------------------------------------- 
C:\Users\Daniel\.stm32cubemx\network_output\autonomoussafetysystem_config.h        
C:\Users\Daniel\.stm32cubemx\network_output\autonomoussafetysystem.h               
C:\Users\Daniel\.stm32cubemx\network_output\autonomoussafetysystem.c               
C:\Users\Daniel\.stm32cubemx\network_output\autonomoussafetysystem_data_params.h   
C:\Users\Daniel\.stm32cubemx\network_output\autonomoussafetysystem_data_params.c   
C:\Users\Daniel\.stm32cubemx\network_output\autonomoussafetysystem_data.h          
C:\Users\Daniel\.stm32cubemx\network_output\autonomoussafetysystem_data.c          
