/**
  ******************************************************************************
  * @file    autonomousdrivingsystem_network.c
  * @author  AST Embedded Analytics Research Platform
  * @date    Sun Jun  9 20:31:21 2024
  * @brief   AI Tool Automatic Code Generator for Embedded NN computing
  ******************************************************************************
  * @attention
  *
  * Copyright (c) 2024 STMicroelectronics.
  * All rights reserved.
  *
  * This software is licensed under terms that can be found in the LICENSE file
  * in the root directory of this software component.
  * If no LICENSE file comes with this software, it is provided AS-IS.
  ******************************************************************************
  */


#include "autonomousdrivingsystem_network.h"
#include "autonomousdrivingsystem_network_data.h"

#include "ai_platform.h"
#include "ai_platform_interface.h"
#include "ai_math_helpers.h"

#include "core_common.h"
#include "core_convert.h"

#include "layers.h"



#undef AI_NET_OBJ_INSTANCE
#define AI_NET_OBJ_INSTANCE g_autonomousdrivingsystem_network
 
#undef AI_AUTONOMOUSDRIVINGSYSTEM_NETWORK_MODEL_SIGNATURE
#define AI_AUTONOMOUSDRIVINGSYSTEM_NETWORK_MODEL_SIGNATURE     "56fb4a29ec9f39293666b86d62424bab"

#ifndef AI_TOOLS_REVISION_ID
#define AI_TOOLS_REVISION_ID     ""
#endif

#undef AI_TOOLS_DATE_TIME
#define AI_TOOLS_DATE_TIME   "Sun Jun  9 20:31:21 2024"

#undef AI_TOOLS_COMPILE_TIME
#define AI_TOOLS_COMPILE_TIME    __DATE__ " " __TIME__

#undef AI_AUTONOMOUSDRIVINGSYSTEM_NETWORK_N_BATCHES
#define AI_AUTONOMOUSDRIVINGSYSTEM_NETWORK_N_BATCHES         (1)

static ai_ptr g_autonomousdrivingsystem_network_activations_map[1] = AI_C_ARRAY_INIT;
static ai_ptr g_autonomousdrivingsystem_network_weights_map[1] = AI_C_ARRAY_INIT;



/**  Array declarations section  **********************************************/
/* Array#0 */
AI_ARRAY_OBJ_DECLARE(
  conv2d_4_weights_array, AI_ARRAY_FORMAT_S8,
  NULL, NULL, 73728, AI_STATIC)
/* Array#1 */
AI_ARRAY_OBJ_DECLARE(
  conv2d_11_scratch0_array, AI_ARRAY_FORMAT_S8,
  NULL, NULL, 2304, AI_STATIC)
/* Array#2 */
AI_ARRAY_OBJ_DECLARE(
  conv2d_4_bias_array, AI_ARRAY_FORMAT_S32,
  NULL, NULL, 128, AI_STATIC)
/* Array#3 */
AI_ARRAY_OBJ_DECLARE(
  conv2d_5_weights_array, AI_ARRAY_FORMAT_S8,
  NULL, NULL, 1152, AI_STATIC)
/* Array#4 */
AI_ARRAY_OBJ_DECLARE(
  conv2d_12_scratch0_array, AI_ARRAY_FORMAT_S8,
  NULL, NULL, 4737, AI_STATIC)
/* Array#5 */
AI_ARRAY_OBJ_DECLARE(
  conv2d_4_pad_before_output_array, AI_ARRAY_FORMAT_S8,
  NULL, NULL, 43264, AI_STATIC)
/* Array#6 */
AI_ARRAY_OBJ_DECLARE(
  conv2d_5_bias_array, AI_ARRAY_FORMAT_S32,
  NULL, NULL, 128, AI_STATIC)
/* Array#7 */
AI_ARRAY_OBJ_DECLARE(
  conv2d_13_scratch0_array, AI_ARRAY_FORMAT_S8,
  NULL, NULL, 3072, AI_STATIC)
/* Array#8 */
AI_ARRAY_OBJ_DECLARE(
  conv2d_3_pad_before_output_array, AI_ARRAY_FORMAT_S8,
  NULL, NULL, 80000, AI_STATIC)
/* Array#9 */
AI_ARRAY_OBJ_DECLARE(
  conv2d_6_weights_array, AI_ARRAY_FORMAT_S8,
  NULL, NULL, 32768, AI_STATIC)
/* Array#10 */
AI_ARRAY_OBJ_DECLARE(
  conv2d_14_scratch0_array, AI_ARRAY_FORMAT_S8,
  NULL, NULL, 1324, AI_STATIC)
/* Array#11 */
AI_ARRAY_OBJ_DECLARE(
  conv2d_6_bias_array, AI_ARRAY_FORMAT_S32,
  NULL, NULL, 256, AI_STATIC)
/* Array#12 */
AI_ARRAY_OBJ_DECLARE(
  conv2d_7_weights_array, AI_ARRAY_FORMAT_S8,
  NULL, NULL, 2304, AI_STATIC)
/* Array#13 */
AI_ARRAY_OBJ_DECLARE(
  conv2d_7_bias_array, AI_ARRAY_FORMAT_S32,
  NULL, NULL, 256, AI_STATIC)
/* Array#14 */
AI_ARRAY_OBJ_DECLARE(
  conv2d_8_weights_array, AI_ARRAY_FORMAT_S8,
  NULL, NULL, 65536, AI_STATIC)
/* Array#15 */
AI_ARRAY_OBJ_DECLARE(
  conv2d_8_bias_array, AI_ARRAY_FORMAT_S32,
  NULL, NULL, 256, AI_STATIC)
/* Array#16 */
AI_ARRAY_OBJ_DECLARE(
  conv2d_10_weights_array, AI_ARRAY_FORMAT_S8,
  NULL, NULL, 2304, AI_STATIC)
/* Array#17 */
AI_ARRAY_OBJ_DECLARE(
  serving_default_image_input0_output_array, AI_ARRAY_FORMAT_U8|AI_FMT_FLAG_IS_IO,
  NULL, NULL, 110592, AI_STATIC)
/* Array#18 */
AI_ARRAY_OBJ_DECLARE(
  conv2d_10_bias_array, AI_ARRAY_FORMAT_S32,
  NULL, NULL, 256, AI_STATIC)
/* Array#19 */
AI_ARRAY_OBJ_DECLARE(
  conversion_0_output_array, AI_ARRAY_FORMAT_S8,
  NULL, NULL, 110593, AI_STATIC)
/* Array#20 */
AI_ARRAY_OBJ_DECLARE(
  conv2d_1_output_array, AI_ARRAY_FORMAT_S8,
  NULL, NULL, 147456, AI_STATIC)
/* Array#21 */
AI_ARRAY_OBJ_DECLARE(
  conv2d_11_weights_array, AI_ARRAY_FORMAT_S8,
  NULL, NULL, 32768, AI_STATIC)
/* Array#22 */
AI_ARRAY_OBJ_DECLARE(
  conv2d_2_output_array, AI_ARRAY_FORMAT_S8,
  NULL, NULL, 73728, AI_STATIC)
/* Array#23 */
AI_ARRAY_OBJ_DECLARE(
  conv2d_3_output_array, AI_ARRAY_FORMAT_S8,
  NULL, NULL, 36864, AI_STATIC)
/* Array#24 */
AI_ARRAY_OBJ_DECLARE(
  conv2d_11_bias_array, AI_ARRAY_FORMAT_S32,
  NULL, NULL, 128, AI_STATIC)
/* Array#25 */
AI_ARRAY_OBJ_DECLARE(
  conv2d_4_output_array, AI_ARRAY_FORMAT_S8,
  NULL, NULL, 18432, AI_STATIC)
/* Array#26 */
AI_ARRAY_OBJ_DECLARE(
  conv2d_5_output_array, AI_ARRAY_FORMAT_S8,
  NULL, NULL, 18432, AI_STATIC)
/* Array#27 */
AI_ARRAY_OBJ_DECLARE(
  conv2d_12_weights_array, AI_ARRAY_FORMAT_S8,
  NULL, NULL, 1152, AI_STATIC)
/* Array#28 */
AI_ARRAY_OBJ_DECLARE(
  conv2d_6_output_array, AI_ARRAY_FORMAT_S8,
  NULL, NULL, 36864, AI_STATIC)
/* Array#29 */
AI_ARRAY_OBJ_DECLARE(
  conv2d_7_output_array, AI_ARRAY_FORMAT_S8,
  NULL, NULL, 36864, AI_STATIC)
/* Array#30 */
AI_ARRAY_OBJ_DECLARE(
  conv2d_12_bias_array, AI_ARRAY_FORMAT_S32,
  NULL, NULL, 128, AI_STATIC)
/* Array#31 */
AI_ARRAY_OBJ_DECLARE(
  conv2d_8_output_array, AI_ARRAY_FORMAT_S8,
  NULL, NULL, 36864, AI_STATIC)
/* Array#32 */
AI_ARRAY_OBJ_DECLARE(
  conv2d_10_output_array, AI_ARRAY_FORMAT_S8,
  NULL, NULL, 36864, AI_STATIC)
/* Array#33 */
AI_ARRAY_OBJ_DECLARE(
  conv2d_13_weights_array, AI_ARRAY_FORMAT_S8,
  NULL, NULL, 32768, AI_STATIC)
/* Array#34 */
AI_ARRAY_OBJ_DECLARE(
  conv2d_11_output_array, AI_ARRAY_FORMAT_S8,
  NULL, NULL, 18432, AI_STATIC)
/* Array#35 */
AI_ARRAY_OBJ_DECLARE(
  conv2d_12_output_array, AI_ARRAY_FORMAT_S8,
  NULL, NULL, 18432, AI_STATIC)
/* Array#36 */
AI_ARRAY_OBJ_DECLARE(
  conv2d_13_bias_array, AI_ARRAY_FORMAT_S32,
  NULL, NULL, 256, AI_STATIC)
/* Array#37 */
AI_ARRAY_OBJ_DECLARE(
  conv2d_13_output_array, AI_ARRAY_FORMAT_S8,
  NULL, NULL, 36864, AI_STATIC)
/* Array#38 */
AI_ARRAY_OBJ_DECLARE(
  conv2d_14_output_array, AI_ARRAY_FORMAT_S8,
  NULL, NULL, 4320, AI_STATIC)
/* Array#39 */
AI_ARRAY_OBJ_DECLARE(
  conv2d_14_weights_array, AI_ARRAY_FORMAT_S8,
  NULL, NULL, 7680, AI_STATIC)
/* Array#40 */
AI_ARRAY_OBJ_DECLARE(
  conversion_15_output_array, AI_ARRAY_FORMAT_FLOAT|AI_FMT_FLAG_IS_IO,
  NULL, NULL, 4320, AI_STATIC)
/* Array#41 */
AI_ARRAY_OBJ_DECLARE(
  conv2d_14_bias_array, AI_ARRAY_FORMAT_S32,
  NULL, NULL, 30, AI_STATIC)
/* Array#42 */
AI_ARRAY_OBJ_DECLARE(
  conv2d_1_scratch0_array, AI_ARRAY_FORMAT_S8,
  NULL, NULL, 1196, AI_STATIC)
/* Array#43 */
AI_ARRAY_OBJ_DECLARE(
  conv2d_2_scratch0_array, AI_ARRAY_FORMAT_S8,
  NULL, NULL, 6016, AI_STATIC)
/* Array#44 */
AI_ARRAY_OBJ_DECLARE(
  conv2d_3_scratch0_array, AI_ARRAY_FORMAT_S8,
  NULL, NULL, 6912, AI_STATIC)
/* Array#45 */
AI_ARRAY_OBJ_DECLARE(
  conv2d_4_scratch0_array, AI_ARRAY_FORMAT_S8,
  NULL, NULL, 8704, AI_STATIC)
/* Array#46 */
AI_ARRAY_OBJ_DECLARE(
  conv2d_5_scratch0_array, AI_ARRAY_FORMAT_S8,
  NULL, NULL, 4737, AI_STATIC)
/* Array#47 */
AI_ARRAY_OBJ_DECLARE(
  conv2d_1_weights_array, AI_ARRAY_FORMAT_S8,
  NULL, NULL, 432, AI_STATIC)
/* Array#48 */
AI_ARRAY_OBJ_DECLARE(
  conv2d_6_scratch0_array, AI_ARRAY_FORMAT_S8,
  NULL, NULL, 3072, AI_STATIC)
/* Array#49 */
AI_ARRAY_OBJ_DECLARE(
  conv2d_1_bias_array, AI_ARRAY_FORMAT_S32,
  NULL, NULL, 16, AI_STATIC)
/* Array#50 */
AI_ARRAY_OBJ_DECLARE(
  conv2d_7_scratch0_array, AI_ARRAY_FORMAT_S8,
  NULL, NULL, 9473, AI_STATIC)
/* Array#51 */
AI_ARRAY_OBJ_DECLARE(
  conv2d_2_weights_array, AI_ARRAY_FORMAT_S8,
  NULL, NULL, 4608, AI_STATIC)
/* Array#52 */
AI_ARRAY_OBJ_DECLARE(
  conv2d_2_bias_array, AI_ARRAY_FORMAT_S32,
  NULL, NULL, 32, AI_STATIC)
/* Array#53 */
AI_ARRAY_OBJ_DECLARE(
  conv2d_8_scratch0_array, AI_ARRAY_FORMAT_S8,
  NULL, NULL, 3584, AI_STATIC)
/* Array#54 */
AI_ARRAY_OBJ_DECLARE(
  conv2d_3_weights_array, AI_ARRAY_FORMAT_S8,
  NULL, NULL, 18432, AI_STATIC)
/* Array#55 */
AI_ARRAY_OBJ_DECLARE(
  conv2d_8_scratch1_array, AI_ARRAY_FORMAT_S8,
  NULL, NULL, 6144, AI_STATIC)
/* Array#56 */
AI_ARRAY_OBJ_DECLARE(
  conv2d_3_bias_array, AI_ARRAY_FORMAT_S32,
  NULL, NULL, 64, AI_STATIC)
/* Array#57 */
AI_ARRAY_OBJ_DECLARE(
  conv2d_10_scratch0_array, AI_ARRAY_FORMAT_S8,
  NULL, NULL, 9473, AI_STATIC)
/**  Array metadata declarations section  *************************************/
/* Int quant #0 */
AI_INTQ_INFO_LIST_OBJ_DECLARE(conv2d_4_weights_array_intq, AI_STATIC_CONST,
  AI_BUFFER_META_FLAG_SCALE_FLOAT|AI_BUFFER_META_FLAG_ZEROPOINT_S8, 128,
  AI_PACK_INTQ_INFO(
    AI_PACK_INTQ_SCALE(… 0.0024493185337632895f),
    AI_PACK_INTQ_ZP(0, 0, 0, 0, 0, 0, 0, 0, 0, 0, 0, 0, 0, 0, 0, 0, 0, 0, 0, 0, 0, 0, 0, 0, 0, 0, 0, 0, 0, 0, 0, 0, 0, 0, 0, 0, 0, 0, 0, 0, 0, 0, 0, 0, 0, 0, 0, 0, 0, 0, 0, 0, 0, 0, 0, 0, 0, 0, 0, 0, 0, 0, 0, 0, 0, 0, 0, 0, 0, 0, 0, 0, 0, 0, 0, 0, 0, 0, 0, 0, 0, 0, 0, 0, 0, 0, 0, 0, 0, 0, 0, 0, 0, 0, 0, 0, 0, 0, 0, 0, 0, 0, 0, 0, 0, 0, 0, 0, 0, 0, 0, 0, 0, 0, 0, 0, 0, 0, 0, 0, 0, 0, 0, 0, 0, 0, 0, 0)))

/* Int quant #1 */
AI_INTQ_INFO_LIST_OBJ_DECLARE(conv2d_5_weights_array_intq, AI_STATIC_CONST,
  AI_BUFFER_META_FLAG_SCALE_FLOAT|AI_BUFFER_META_FLAG_ZEROPOINT_S8, 128,
  AI_PACK_INTQ_INFO(
    AI_PACK_INTQ_SCALE(… 0.01004335843026638f),
    AI_PACK_INTQ_ZP(0, 0, 0, 0, 0, 0, 0, 0, 0, 0, 0, 0, 0, 0, 0, 0, 0, 0, 0, 0, 0, 0, 0, 0, 0, 0, 0, 0, 0, 0, 0, 0, 0, 0, 0, 0, 0, 0, 0, 0, 0, 0, 0, 0, 0, 0, 0, 0, 0, 0, 0, 0, 0, 0, 0, 0, 0, 0, 0, 0, 0, 0, 0, 0, 0, 0, 0, 0, 0, 0, 0, 0, 0, 0, 0, 0, 0, 0, 0, 0, 0, 0, 0, 0, 0, 0, 0, 0, 0, 0, 0, 0, 0, 0, 0, 0, 0, 0, 0, 0, 0, 0, 0, 0, 0, 0, 0, 0, 0, 0, 0, 0, 0, 0, 0, 0, 0, 0, 0, 0, 0, 0, 0, 0, 0, 0, 0, 0)))

/* Int quant #2 */
AI_INTQ_INFO_LIST_OBJ_DECLARE(conv2d_4_pad_before_output_array_intq, AI_STATIC_CONST,
  AI_BUFFER_META_FLAG_SCALE_FLOAT|AI_BUFFER_META_FLAG_ZEROPOINT_S8, 1,
  AI_PACK_INTQ_INFO(
    AI_PACK_INTQ_SCALE(0.2400805801153183f),
    AI_PACK_INTQ_ZP(-128)))

/* Int quant #3 */
AI_INTQ_INFO_LIST_OBJ_DECLARE(conv2d_3_pad_before_output_array_intq, AI_STATIC_CONST,
  AI_BUFFER_META_FLAG_SCALE_FLOAT|AI_BUFFER_META_FLAG_ZEROPOINT_S8, 1,
  AI_PACK_INTQ_INFO(
    AI_PACK_INTQ_SCALE(0.467665433883667f),
    AI_PACK_INTQ_ZP(-128)))

/* Int quant #4 */
AI_INTQ_INFO_LIST_OBJ_DECLARE(conv2d_6_weights_array_intq, AI_STATIC_CONST,
  AI_BUFFER_META_FLAG_SCALE_FLOAT|AI_BUFFER_META_FLAG_ZEROPOINT_S8, 256,
  AI_PACK_INTQ_INFO(
    AI_PACK_INTQ_SCALE(… 0.0036941065918654203f),
    AI_PACK_INTQ_ZP(0, 0, 0, 0, 0, 0, 0, 0, 0, 0, 0, 0, 0, 0, 0, 0, 0, 0, 0, 0, 0, 0, 0, 0, 0, 0, 0, 0, 0, 0, 0, 0, 0, 0, 0, 0, 0, 0, 0, 0, 0, 0, 0, 0, 0, 0, 0, 0, 0, 0, 0, 0, 0, 0, 0, 0, 0, 0, 0, 0, 0, 0, 0, 0, 0, 0, 0, 0, 0, 0, 0, 0, 0, 0, 0, 0, 0, 0, 0, 0, 0, 0, 0, 0, 0, 0, 0, 0, 0, 0, 0, 0, 0, 0, 0, 0, 0, 0, 0, 0, 0, 0, 0, 0, 0, 0, 0, 0, 0, 0, 0, 0, 0, 0, 0, 0, 0, 0, 0, 0, 0, 0, 0, 0, 0, 0, 0, 0, 0, 0, 0, 0, 0, 0, 0, 0, 0, 0, 0, 0, 0, 0, 0, 0, 0, 0, 0, 0, 0, 0, 0, 0, 0, 0, 0, 0, 0, 0, 0, 0, 0, 0, 0, 0, 0, 0, 0, 0, 0, 0, 0, 0, 0, 0, 0, 0, 0, 0, 0, 0, 0, 0, 0, 0, 0, 0, 0, 0, 0, 0, 0, 0, 0, 0, 0, 0, 0, 0, 0, 0, 0, 0, 0, 0, 0, 0, 0, 0, 0, 0, 0, 0, 0, 0, 0, 0, 0, 0, 0, 0, 0, 0, 0, 0, 0, 0, 0, 0, 0, 0, 0, 0, 0, 0, 0, 0, 0, 0, 0, 0, 0, 0, 0, 0, 0, 0, 0, 0, 0, 0, 0, 0, 0, 0, 0, 0)))

/* Int quant #5 */
AI_INTQ_INFO_LIST_OBJ_DECLARE(conv2d_7_weights_array_intq, AI_STATIC_CONST,
  AI_BUFFER_META_FLAG_SCALE_FLOAT|AI_BUFFER_META_FLAG_ZEROPOINT_S8, 256,
  AI_PACK_INTQ_INFO(
    AI_PACK_INTQ_SCALE(… 0.004275497980415821f),
    AI_PACK_INTQ_ZP(0, 0, 0, 0, 0, 0, 0, 0, 0, 0, 0, 0, 0, 0, 0, 0, 0, 0, 0, 0, 0, 0, 0, 0, 0, 0, 0, 0, 0, 0, 0, 0, 0, 0, 0, 0, 0, 0, 0, 0, 0, 0, 0, 0, 0, 0, 0, 0, 0, 0, 0, 0, 0, 0, 0, 0, 0, 0, 0, 0, 0, 0, 0, 0, 0, 0, 0, 0, 0, 0, 0, 0, 0, 0, 0, 0, 0, 0, 0, 0, 0, 0, 0, 0, 0, 0, 0, 0, 0, 0, 0, 0, 0, 0, 0, 0, 0, 0, 0, 0, 0, 0, 0, 0, 0, 0, 0, 0, 0, 0, 0, 0, 0, 0, 0, 0, 0, 0, 0, 0, 0, 0, 0, 0, 0, 0, 0, 0, 0, 0, 0, 0, 0, 0, 0, 0, 0, 0, 0, 0, 0, 0, 0, 0, 0, 0, 0, 0, 0, 0, 0, 0, 0, 0, 0, 0, 0, 0, 0, 0, 0, 0, 0, 0, 0, 0, 0, 0, 0, 0, 0, 0, 0, 0, 0, 0, 0, 0, 0, 0, 0, 0, 0, 0, 0, 0, 0, 0, 0, 0, 0, 0, 0, 0, 0, 0, 0, 0, 0, 0, 0, 0, 0, 0, 0, 0, 0, 0, 0, 0, 0, 0, 0, 0, 0, 0, 0, 0, 0, 0, 0, 0, 0, 0, 0, 0, 0, 0, 0, 0, 0, 0, 0, 0, 0, 0, 0, 0, 0, 0, 0, 0, 0, 0, 0, 0, 0, 0, 0, 0, 0, 0, 0, 0, 0, 0)))

/* Int quant #6 */
AI_INTQ_INFO_LIST_OBJ_DECLARE(conv2d_8_weights_array_intq, AI_STATIC_CONST,
  AI_BUFFER_META_FLAG_SCALE_FLOAT|AI_BUFFER_META_FLAG_ZEROPOINT_S8, 256,
  AI_PACK_INTQ_INFO(
    AI_PACK_INTQ_SCALE(… 0.0020793424919247627f),
    AI_PACK_INTQ_ZP(0, 0, 0, 0, 0, 0, 0, 0, 0, 0, 0, 0, 0, 0, 0, 0, 0, 0, 0, 0, 0, 0, 0, 0, 0, 0, 0, 0, 0, 0, 0, 0, 0, 0, 0, 0, 0, 0, 0, 0, 0, 0, 0, 0, 0, 0, 0, 0, 0, 0, 0, 0, 0, 0, 0, 0, 0, 0, 0, 0, 0, 0, 0, 0, 0, 0, 0, 0, 0, 0, 0, 0, 0, 0, 0, 0, 0, 0, 0, 0, 0, 0, 0, 0, 0, 0, 0, 0, 0, 0, 0, 0, 0, 0, 0, 0, 0, 0, 0, 0, 0, 0, 0, 0, 0, 0, 0, 0, 0, 0, 0, 0, 0, 0, 0, 0, 0, 0, 0, 0, 0, 0, 0, 0, 0, 0, 0, 0, 0, 0, 0, 0, 0, 0, 0, 0, 0, 0, 0, 0, 0, 0, 0, 0, 0, 0, 0, 0, 0, 0, 0, 0, 0, 0, 0, 0, 0, 0, 0, 0, 0, 0, 0, 0, 0, 0, 0, 0, 0, 0, 0, 0, 0, 0, 0, 0, 0, 0, 0, 0, 0, 0, 0, 0, 0, 0, 0, 0, 0, 0, 0, 0, 0, 0, 0, 0, 0, 0, 0, 0, 0, 0, 0, 0, 0, 0, 0, 0, 0, 0, 0, 0, 0, 0, 0, 0, 0, 0, 0, 0, 0, 0, 0, 0, 0, 0, 0, 0, 0, 0, 0, 0, 0, 0, 0, 0, 0, 0, 0, 0, 0, 0, 0, 0, 0, 0, 0, 0, 0, 0, 0, 0, 0, 0, 0, 0)))

/* Int quant #7 */
AI_INTQ_INFO_LIST_OBJ_DECLARE(conv2d_10_weights_array_intq, AI_STATIC_CONST,
  AI_BUFFER_META_FLAG_SCALE_FLOAT|AI_BUFFER_META_FLAG_ZEROPOINT_S8, 256,
  AI_PACK_INTQ_INFO(
    AI_PACK_INTQ_SCALE(… 0.011676862835884094f),
    AI_PACK_INTQ_ZP(0, 0, 0, 0, 0, 0, 0, 0, 0, 0, 0, 0, 0, 0, 0, 0, 0, 0, 0, 0, 0, 0, 0, 0, 0, 0, 0, 0, 0, 0, 0, 0, 0, 0, 0, 0, 0, 0, 0, 0, 0, 0, 0, 0, 0, 0, 0, 0, 0, 0, 0, 0, 0, 0, 0, 0, 0, 0, 0, 0, 0, 0, 0, 0, 0, 0, 0, 0, 0, 0, 0, 0, 0, 0, 0, 0, 0, 0, 0, 0, 0, 0, 0, 0, 0, 0, 0, 0, 0, 0, 0, 0, 0, 0, 0, 0, 0, 0, 0, 0, 0, 0, 0, 0, 0, 0, 0, 0, 0, 0, 0, 0, 0, 0, 0, 0, 0, 0, 0, 0, 0, 0, 0, 0, 0, 0, 0, 0, 0, 0, 0, 0, 0, 0, 0, 0, 0, 0, 0, 0, 0, 0, 0, 0, 0, 0, 0, 0, 0, 0, 0, 0, 0, 0, 0, 0, 0, 0, 0, 0, 0, 0, 0, 0, 0, 0, 0, 0, 0, 0, 0, 0, 0, 0, 0, 0, 0, 0, 0, 0, 0, 0, 0, 0, 0, 0, 0, 0, 0, 0, 0, 0, 0, 0, 0, 0, 0, 0, 0, 0, 0, 0, 0, 0, 0, 0, 0, 0, 0, 0, 0, 0, 0, 0, 0, 0, 0, 0, 0, 0, 0, 0, 0, 0, 0, 0, 0, 0, 0, 0, 0, 0, 0, 0, 0, 0, 0, 0, 0, 0, 0, 0, 0, 0, 0, 0, 0, 0, 0, 0, 0, 0, 0, 0, 0, 0)))

/* Int quant #8 */
AI_INTQ_INFO_LIST_OBJ_DECLARE(serving_default_image_input0_output_array_intq, AI_STATIC_CONST,
  AI_BUFFER_META_FLAG_SCALE_FLOAT|AI_BUFFER_META_FLAG_ZEROPOINT_U8, 1,
  AI_PACK_INTQ_INFO(
    AI_PACK_INTQ_SCALE(0.003921568859368563f),
    AI_PACK_UINTQ_ZP(0)))

/* Int quant #9 */
AI_INTQ_INFO_LIST_OBJ_DECLARE(conversion_0_output_array_intq, AI_STATIC_CONST,
  AI_BUFFER_META_FLAG_SCALE_FLOAT|AI_BUFFER_META_FLAG_ZEROPOINT_S8, 1,
  AI_PACK_INTQ_INFO(
    AI_PACK_INTQ_SCALE(0.003921568859368563f),
    AI_PACK_INTQ_ZP(-128)))

/* Int quant #10 */
AI_INTQ_INFO_LIST_OBJ_DECLARE(conv2d_1_output_array_intq, AI_STATIC_CONST,
  AI_BUFFER_META_FLAG_SCALE_FLOAT|AI_BUFFER_META_FLAG_ZEROPOINT_S8, 1,
  AI_PACK_INTQ_INFO(
    AI_PACK_INTQ_SCALE(0.3023799955844879f),
    AI_PACK_INTQ_ZP(-128)))

/* Int quant #11 */
AI_INTQ_INFO_LIST_OBJ_DECLARE(conv2d_11_weights_array_intq, AI_STATIC_CONST,
  AI_BUFFER_META_FLAG_SCALE_FLOAT|AI_BUFFER_META_FLAG_ZEROPOINT_S8, 128,
  AI_PACK_INTQ_INFO(
    AI_PACK_INTQ_SCALE(… 2.824956209224183e-05f),
    AI_PACK_INTQ_ZP(0, 0, 0, 0, 0, 0, 0, 0, 0, 0, 0, 0, 0, 0, 0, 0, 0, 0, 0, 0, 0, 0, 0, 0, 0, 0, 0, 0, 0, 0, 0, 0, 0, 0, 0, 0, 0, 0, 0, 0, 0, 0, 0, 0, 0, 0, 0, 0, 0, 0, 0, 0, 0, 0, 0, 0, 0, 0, 0, 0, 0, 0, 0, 0, 0, 0, 0, 0, 0, 0, 0, 0, 0, 0, 0, 0, 0, 0, 0, 0, 0, 0, 0, 0, 0, 0, 0, 0, 0, 0, 0, 0, 0, 0, 0, 0, 0, 0, 0, 0, 0, 0, 0, 0, 0, 0, 0, 0, 0, 0, 0, 0, 0, 0, 0, 0, 0, 0, 0, 0, 0, 0, 0, 0, 0, 0, 0, 0)))

/* Int quant #12 */
AI_INTQ_INFO_LIST_OBJ_DECLARE(conv2d_2_output_array_intq, AI_STATIC_CONST,
  AI_BUFFER_META_FLAG_SCALE_FLOAT|AI_BUFFER_META_FLAG_ZEROPOINT_S8, 1,
  AI_PACK_INTQ_INFO(
    AI_PACK_INTQ_SCALE(0.467665433883667f),
    AI_PACK_INTQ_ZP(-128)))

/* Int quant #13 */
AI_INTQ_INFO_LIST_OBJ_DECLARE(conv2d_3_output_array_intq, AI_STATIC_CONST,
  AI_BUFFER_META_FLAG_SCALE_FLOAT|AI_BUFFER_META_FLAG_ZEROPOINT_S8, 1,
  AI_PACK_INTQ_INFO(
    AI_PACK_INTQ_SCALE(0.2400805801153183f),
    AI_PACK_INTQ_ZP(-128)))

/* Int quant #14 */
AI_INTQ_INFO_LIST_OBJ_DECLARE(conv2d_4_output_array_intq, AI_STATIC_CONST,
  AI_BUFFER_META_FLAG_SCALE_FLOAT|AI_BUFFER_META_FLAG_ZEROPOINT_S8, 1,
  AI_PACK_INTQ_INFO(
    AI_PACK_INTQ_SCALE(0.47005903720855713f),
    AI_PACK_INTQ_ZP(-128)))

/* Int quant #15 */
AI_INTQ_INFO_LIST_OBJ_DECLARE(conv2d_5_output_array_intq, AI_STATIC_CONST,
  AI_BUFFER_META_FLAG_SCALE_FLOAT|AI_BUFFER_META_FLAG_ZEROPOINT_S8, 1,
  AI_PACK_INTQ_INFO(
    AI_PACK_INTQ_SCALE(0.6989559531211853f),
    AI_PACK_INTQ_ZP(-18)))

/* Int quant #16 */
AI_INTQ_INFO_LIST_OBJ_DECLARE(conv2d_12_weights_array_intq, AI_STATIC_CONST,
  AI_BUFFER_META_FLAG_SCALE_FLOAT|AI_BUFFER_META_FLAG_ZEROPOINT_S8, 128,
  AI_PACK_INTQ_INFO(
    AI_PACK_INTQ_SCALE(… 0.19235101342201233f),
    AI_PACK_INTQ_ZP(0, 0, 0, 0, 0, 0, 0, 0, 0, 0, 0, 0, 0, 0, 0, 0, 0, 0, 0, 0, 0, 0, 0, 0, 0, 0, 0, 0, 0, 0, 0, 0, 0, 0, 0, 0, 0, 0, 0, 0, 0, 0, 0, 0, 0, 0, 0, 0, 0, 0, 0, 0, 0, 0, 0, 0, 0, 0, 0, 0, 0, 0, 0, 0, 0, 0, 0, 0, 0, 0, 0, 0, 0, 0, 0, 0, 0, 0, 0, 0, 0, 0, 0, 0, 0, 0, 0, 0, 0, 0, 0, 0, 0, 0, 0, 0, 0, 0, 0, 0, 0, 0, 0, 0, 0, 0, 0, 0, 0, 0, 0, 0, 0, 0, 0, 0, 0, 0, 0, 0, 0, 0, 0, 0, 0, 0, 0, 0)))

/* Int quant #17 */
AI_INTQ_INFO_LIST_OBJ_DECLARE(conv2d_6_output_array_intq, AI_STATIC_CONST,
  AI_BUFFER_META_FLAG_SCALE_FLOAT|AI_BUFFER_META_FLAG_ZEROPOINT_S8, 1,
  AI_PACK_INTQ_INFO(
    AI_PACK_INTQ_SCALE(0.47861212491989136f),
    AI_PACK_INTQ_ZP(-128)))

/* Int quant #18 */
AI_INTQ_INFO_LIST_OBJ_DECLARE(conv2d_7_output_array_intq, AI_STATIC_CONST,
  AI_BUFFER_META_FLAG_SCALE_FLOAT|AI_BUFFER_META_FLAG_ZEROPOINT_S8, 1,
  AI_PACK_INTQ_INFO(
    AI_PACK_INTQ_SCALE(0.643443763256073f),
    AI_PACK_INTQ_ZP(7)))

/* Int quant #19 */
AI_INTQ_INFO_LIST_OBJ_DECLARE(conv2d_8_output_array_intq, AI_STATIC_CONST,
  AI_BUFFER_META_FLAG_SCALE_FLOAT|AI_BUFFER_META_FLAG_ZEROPOINT_S8, 1,
  AI_PACK_INTQ_INFO(
    AI_PACK_INTQ_SCALE(0.5537903904914856f),
    AI_PACK_INTQ_ZP(-128)))

/* Int quant #20 */
AI_INTQ_INFO_LIST_OBJ_DECLARE(conv2d_10_output_array_intq, AI_STATIC_CONST,
  AI_BUFFER_META_FLAG_SCALE_FLOAT|AI_BUFFER_META_FLAG_ZEROPOINT_S8, 1,
  AI_PACK_INTQ_INFO(
    AI_PACK_INTQ_SCALE(0.9004228115081787f),
    AI_PACK_INTQ_ZP(-7)))

/* Int quant #21 */
AI_INTQ_INFO_LIST_OBJ_DECLARE(conv2d_13_weights_array_intq, AI_STATIC_CONST,
  AI_BUFFER_META_FLAG_SCALE_FLOAT|AI_BUFFER_META_FLAG_ZEROPOINT_S8, 256,
  AI_PACK_INTQ_INFO(
    AI_PACK_INTQ_SCALE(… 0.0013940866338089108f),
    AI_PACK_INTQ_ZP(0, 0, 0, 0, 0, 0, 0, 0, 0, 0, 0, 0, 0, 0, 0, 0, 0, 0, 0, 0, 0, 0, 0, 0, 0, 0, 0, 0, 0, 0, 0, 0, 0, 0, 0, 0, 0, 0, 0, 0, 0, 0, 0, 0, 0, 0, 0, 0, 0, 0, 0, 0, 0, 0, 0, 0, 0, 0, 0, 0, 0, 0, 0, 0, 0, 0, 0, 0, 0, 0, 0, 0, 0, 0, 0, 0, 0, 0, 0, 0, 0, 0, 0, 0, 0, 0, 0, 0, 0, 0, 0, 0, 0, 0, 0, 0, 0, 0, 0, 0, 0, 0, 0, 0, 0, 0, 0, 0, 0, 0, 0, 0, 0, 0, 0, 0, 0, 0, 0, 0, 0, 0, 0, 0, 0, 0, 0, 0, 0, 0, 0, 0, 0, 0, 0, 0, 0, 0, 0, 0, 0, 0, 0, 0, 0, 0, 0, 0, 0, 0, 0, 0, 0, 0, 0, 0, 0, 0, 0, 0, 0, 0, 0, 0, 0, 0, 0, 0, 0, 0, 0, 0, 0, 0, 0, 0, 0, 0, 0, 0, 0, 0, 0, 0, 0, 0, 0, 0, 0, 0, 0, 0, 0, 0, 0, 0, 0, 0, 0, 0, 0, 0, 0, 0, 0, 0, 0, 0, 0, 0, 0, 0, 0, 0, 0, 0, 0, 0, 0, 0, 0, 0, 0, 0, 0, 0, 0, 0, 0, 0, 0, 0, 0, 0, 0, 0, 0, 0, 0, 0, 0, 0, 0, 0, 0, 0, 0, 0, 0, 0, 0, 0, 0, 0, 0, 0)))

/* Int quant #22 */
AI_INTQ_INFO_LIST_OBJ_DECLARE(conv2d_11_output_array_intq, AI_STATIC_CONST,
  AI_BUFFER_META_FLAG_SCALE_FLOAT|AI_BUFFER_META_FLAG_ZEROPOINT_S8, 1,
  AI_PACK_INTQ_INFO(
    AI_PACK_INTQ_SCALE(0.5382390022277832f),
    AI_PACK_INTQ_ZP(-128)))

/* Int quant #23 */
AI_INTQ_INFO_LIST_OBJ_DECLARE(conv2d_12_output_array_intq, AI_STATIC_CONST,
  AI_BUFFER_META_FLAG_SCALE_FLOAT|AI_BUFFER_META_FLAG_ZEROPOINT_S8, 1,
  AI_PACK_INTQ_INFO(
    AI_PACK_INTQ_SCALE(1.1393173933029175f),
    AI_PACK_INTQ_ZP(-9)))

/* Int quant #24 */
AI_INTQ_INFO_LIST_OBJ_DECLARE(conv2d_13_output_array_intq, AI_STATIC_CONST,
  AI_BUFFER_META_FLAG_SCALE_FLOAT|AI_BUFFER_META_FLAG_ZEROPOINT_S8, 1,
  AI_PACK_INTQ_INFO(
    AI_PACK_INTQ_SCALE(0.42826321721076965f),
    AI_PACK_INTQ_ZP(-128)))

/* Int quant #25 */
AI_INTQ_INFO_LIST_OBJ_DECLARE(conv2d_14_output_array_intq, AI_STATIC_CONST,
  AI_BUFFER_META_FLAG_SCALE_FLOAT|AI_BUFFER_META_FLAG_ZEROPOINT_S8, 1,
  AI_PACK_INTQ_INFO(
    AI_PACK_INTQ_SCALE(0.40108391642570496f),
    AI_PACK_INTQ_ZP(93)))

/* Int quant #26 */
AI_INTQ_INFO_LIST_OBJ_DECLARE(conv2d_14_weights_array_intq, AI_STATIC_CONST,
  AI_BUFFER_META_FLAG_SCALE_FLOAT|AI_BUFFER_META_FLAG_ZEROPOINT_S8, 30,
  AI_PACK_INTQ_INFO(
    AI_PACK_INTQ_SCALE(… 0.0007163761183619499f),
    AI_PACK_INTQ_ZP(0, 0, 0, 0, 0, 0, 0, 0, 0, 0, 0, 0, 0, 0, 0, 0, 0, 0, 0, 0, 0, 0, 0, 0, 0, 0, 0, 0, 0, 0)))

/* Int quant #27 */
AI_INTQ_INFO_LIST_OBJ_DECLARE(conv2d_1_weights_array_intq, AI_STATIC_CONST,
  AI_BUFFER_META_FLAG_SCALE_FLOAT|AI_BUFFER_META_FLAG_ZEROPOINT_S8, 16,
  AI_PACK_INTQ_INFO(
    AI_PACK_INTQ_SCALE(0.05269309878349304f, 0.030839625746011734f, 0.09625233709812164f, 0.02835976704955101f, 0.076607346534729f, 0.10714225471019745f, 0.07663627713918686f, 0.03854849934577942f, 0.024398431181907654f, 0.1007375419139862f, 0.05714157968759537f, 0.049341656267642975f, 0.04394785314798355f, 0.05239645764231682f, 0.1562049686908722f, 0.056869521737098694f),
    AI_PACK_INTQ_ZP(0, 0, 0, 0, 0, 0, 0, 0, 0, 0, 0, 0, 0, 0, 0, 0)))

/* Int quant #28 */
AI_INTQ_INFO_LIST_OBJ_DECLARE(conv2d_2_weights_array_intq, AI_STATIC_CONST,
  AI_BUFFER_META_FLAG_SCALE_FLOAT|AI_BUFFER_META_FLAG_ZEROPOINT_S8, 32,
  AI_PACK_INTQ_INFO(
    AI_PACK_INTQ_SCALE(… 0.002376711694523692f),
    AI_PACK_INTQ_ZP(0, 0, 0, 0, 0, 0, 0, 0, 0, 0, 0, 0, 0, 0, 0, 0, 0, 0, 0, 0, 0, 0, 0, 0, 0, 0, 0, 0, 0, 0, 0, 0)))

/* Int quant #29 */
AI_INTQ_INFO_LIST_OBJ_DECLARE(conv2d_3_weights_array_intq, AI_STATIC_CONST,
  AI_BUFFER_META_FLAG_SCALE_FLOAT|AI_BUFFER_META_FLAG_ZEROPOINT_S8, 64,
  AI_PACK_INTQ_INFO(
    AI_PACK_INTQ_SCALE(… 0.002938200021162629f),
    AI_PACK_INTQ_ZP(0, 0, 0, 0, 0, 0, 0, 0, 0, 0, 0, 0, 0, 0, 0, 0, 0, 0, 0, 0, 0, 0, 0, 0, 0, 0, 0, 0, 0, 0, 0, 0, 0, 0, 0, 0, 0, 0, 0, 0, 0, 0, 0, 0, 0, 0, 0, 0, 0, 0, 0, 0, 0, 0, 0, 0, 0, 0, 0, 0, 0, 0, 0, 0)))

/* Int quant #30 */
AI_INTQ_INFO_LIST_OBJ_DECLARE(conv2d_8_scratch1_array_intq, AI_STATIC_CONST,
  AI_BUFFER_META_FLAG_SCALE_FLOAT|AI_BUFFER_META_FLAG_ZEROPOINT_S8, 1,
  AI_PACK_INTQ_INFO(
    AI_PACK_INTQ_SCALE(0.5537903904914856f),
    AI_PACK_INTQ_ZP(-128)))

/**  Tensor declarations section  *********************************************/
/* Tensor #0 */
AI_TENSOR_OBJ_DECLARE(
  conv2d_4_weights, AI_STATIC,
  0, 0x1,
  AI_SHAPE_INIT(4, 64, 3, 3, 128), AI_STRIDE_INIT(4, 1, 64, 192, 576),
  1, &conv2d_4_weights_array, &conv2d_4_weights_array_intq)

/* Tensor #1 */
AI_TENSOR_OBJ_DECLARE(
  conv2d_11_scratch0, AI_STATIC,
  1, 0x0,
  AI_SHAPE_INIT(4, 1, 2304, 1, 1), AI_STRIDE_INIT(4, 1, 1, 2304, 2304),
  1, &conv2d_11_scratch0_array, NULL)

/* Tensor #2 */
AI_TENSOR_OBJ_DECLARE(
  conv2d_4_bias, AI_STATIC,
  2, 0x0,
  AI_SHAPE_INIT(4, 1, 128, 1, 1), AI_STRIDE_INIT(4, 4, 4, 512, 512),
  1, &conv2d_4_bias_array, NULL)

/* Tensor #3 */
AI_TENSOR_OBJ_DECLARE(
  conv2d_5_weights, AI_STATIC,
  3, 0x1,
  AI_SHAPE_INIT(4, 128, 3, 3, 1), AI_STRIDE_INIT(4, 1, 1, 128, 384),
  1, &conv2d_5_weights_array, &conv2d_5_weights_array_intq)

/* Tensor #4 */
AI_TENSOR_OBJ_DECLARE(
  conv2d_12_scratch0, AI_STATIC,
  4, 0x0,
  AI_SHAPE_INIT(4, 1, 4737, 1, 1), AI_STRIDE_INIT(4, 1, 1, 4737, 4737),
  1, &conv2d_12_scratch0_array, NULL)

/* Tensor #5 */
AI_TENSOR_OBJ_DECLARE(
  conv2d_4_pad_before_output, AI_STATIC,
  5, 0x1,
  AI_SHAPE_INIT(4, 1, 64, 26, 26), AI_STRIDE_INIT(4, 1, 1, 64, 1664),
  1, &conv2d_4_pad_before_output_array, &conv2d_4_pad_before_output_array_intq)

/* Tensor #6 */
AI_TENSOR_OBJ_DECLARE(
  conv2d_5_bias, AI_STATIC,
  6, 0x0,
  AI_SHAPE_INIT(4, 1, 128, 1, 1), AI_STRIDE_INIT(4, 4, 4, 512, 512),
  1, &conv2d_5_bias_array, NULL)

/* Tensor #7 */
AI_TENSOR_OBJ_DECLARE(
  conv2d_13_scratch0, AI_STATIC,
  7, 0x0,
  AI_SHAPE_INIT(4, 1, 3072, 1, 1), AI_STRIDE_INIT(4, 1, 1, 3072, 3072),
  1, &conv2d_13_scratch0_array, NULL)

/* Tensor #8 */
AI_TENSOR_OBJ_DECLARE(
  conv2d_3_pad_before_output, AI_STATIC,
  8, 0x1,
  AI_SHAPE_INIT(4, 1, 32, 50, 50), AI_STRIDE_INIT(4, 1, 1, 32, 1600),
  1, &conv2d_3_pad_before_output_array, &conv2d_3_pad_before_output_array_intq)

/* Tensor #9 */
AI_TENSOR_OBJ_DECLARE(
  conv2d_6_weights, AI_STATIC,
  9, 0x1,
  AI_SHAPE_INIT(4, 128, 1, 1, 256), AI_STRIDE_INIT(4, 1, 128, 128, 128),
  1, &conv2d_6_weights_array, &conv2d_6_weights_array_intq)

/* Tensor #10 */
AI_TENSOR_OBJ_DECLARE(
  conv2d_14_scratch0, AI_STATIC,
  10, 0x0,
  AI_SHAPE_INIT(4, 1, 1324, 1, 1), AI_STRIDE_INIT(4, 1, 1, 1324, 1324),
  1, &conv2d_14_scratch0_array, NULL)

/* Tensor #11 */
AI_TENSOR_OBJ_DECLARE(
  conv2d_6_bias, AI_STATIC,
  11, 0x0,
  AI_SHAPE_INIT(4, 1, 256, 1, 1), AI_STRIDE_INIT(4, 4, 4, 1024, 1024),
  1, &conv2d_6_bias_array, NULL)

/* Tensor #12 */
AI_TENSOR_OBJ_DECLARE(
  conv2d_7_weights, AI_STATIC,
  12, 0x1,
  AI_SHAPE_INIT(4, 256, 3, 3, 1), AI_STRIDE_INIT(4, 1, 1, 256, 768),
  1, &conv2d_7_weights_array, &conv2d_7_weights_array_intq)

/* Tensor #13 */
AI_TENSOR_OBJ_DECLARE(
  conv2d_7_bias, AI_STATIC,
  13, 0x0,
  AI_SHAPE_INIT(4, 1, 256, 1, 1), AI_STRIDE_INIT(4, 4, 4, 1024, 1024),
  1, &conv2d_7_bias_array, NULL)

/* Tensor #14 */
AI_TENSOR_OBJ_DECLARE(
  conv2d_8_weights, AI_STATIC,
  14, 0x1,
  AI_SHAPE_INIT(4, 256, 1, 1, 256), AI_STRIDE_INIT(4, 1, 256, 256, 256),
  1, &conv2d_8_weights_array, &conv2d_8_weights_array_intq)

/* Tensor #15 */
AI_TENSOR_OBJ_DECLARE(
  conv2d_8_bias, AI_STATIC,
  15, 0x0,
  AI_SHAPE_INIT(4, 1, 256, 1, 1), AI_STRIDE_INIT(4, 4, 4, 1024, 1024),
  1, &conv2d_8_bias_array, NULL)

/* Tensor #16 */
AI_TENSOR_OBJ_DECLARE(
  conv2d_10_weights, AI_STATIC,
  16, 0x1,
  AI_SHAPE_INIT(4, 256, 3, 3, 1), AI_STRIDE_INIT(4, 1, 1, 256, 768),
  1, &conv2d_10_weights_array, &conv2d_10_weights_array_intq)

/* Tensor #17 */
AI_TENSOR_OBJ_DECLARE(
  serving_default_image_input0_output, AI_STATIC,
  17, 0x1,
  AI_SHAPE_INIT(4, 1, 3, 192, 192), AI_STRIDE_INIT(4, 1, 1, 3, 576),
  1, &serving_default_image_input0_output_array, &serving_default_image_input0_output_array_intq)

/* Tensor #18 */
AI_TENSOR_OBJ_DECLARE(
  conv2d_10_bias, AI_STATIC,
  18, 0x0,
  AI_SHAPE_INIT(4, 1, 256, 1, 1), AI_STRIDE_INIT(4, 4, 4, 1024, 1024),
  1, &conv2d_10_bias_array, NULL)

/* Tensor #19 */
AI_TENSOR_OBJ_DECLARE(
  conversion_0_output, AI_STATIC,
  19, 0x1,
  AI_SHAPE_INIT(4, 1, 3, 192, 192), AI_STRIDE_INIT(4, 1, 1, 3, 576),
  1, &conversion_0_output_array, &conversion_0_output_array_intq)

/* Tensor #20 */
AI_TENSOR_OBJ_DECLARE(
  conv2d_1_output, AI_STATIC,
  20, 0x1,
  AI_SHAPE_INIT(4, 1, 16, 96, 96), AI_STRIDE_INIT(4, 1, 1, 16, 1536),
  1, &conv2d_1_output_array, &conv2d_1_output_array_intq)

/* Tensor #21 */
AI_TENSOR_OBJ_DECLARE(
  conv2d_11_weights, AI_STATIC,
  21, 0x1,
  AI_SHAPE_INIT(4, 256, 1, 1, 128), AI_STRIDE_INIT(4, 1, 256, 256, 256),
  1, &conv2d_11_weights_array, &conv2d_11_weights_array_intq)

/* Tensor #22 */
AI_TENSOR_OBJ_DECLARE(
  conv2d_2_output, AI_STATIC,
  22, 0x1,
  AI_SHAPE_INIT(4, 1, 32, 48, 48), AI_STRIDE_INIT(4, 1, 1, 32, 1536),
  1, &conv2d_2_output_array, &conv2d_2_output_array_intq)

/* Tensor #23 */
AI_TENSOR_OBJ_DECLARE(
  conv2d_3_output, AI_STATIC,
  23, 0x1,
  AI_SHAPE_INIT(4, 1, 64, 24, 24), AI_STRIDE_INIT(4, 1, 1, 64, 1536),
  1, &conv2d_3_output_array, &conv2d_3_output_array_intq)

/* Tensor #24 */
AI_TENSOR_OBJ_DECLARE(
  conv2d_11_bias, AI_STATIC,
  24, 0x0,
  AI_SHAPE_INIT(4, 1, 128, 1, 1), AI_STRIDE_INIT(4, 4, 4, 512, 512),
  1, &conv2d_11_bias_array, NULL)

/* Tensor #25 */
AI_TENSOR_OBJ_DECLARE(
  conv2d_4_output, AI_STATIC,
  25, 0x1,
  AI_SHAPE_INIT(4, 1, 128, 12, 12), AI_STRIDE_INIT(4, 1, 1, 128, 1536),
  1, &conv2d_4_output_array, &conv2d_4_output_array_intq)

/* Tensor #26 */
AI_TENSOR_OBJ_DECLARE(
  conv2d_5_output, AI_STATIC,
  26, 0x1,
  AI_SHAPE_INIT(4, 1, 128, 12, 12), AI_STRIDE_INIT(4, 1, 1, 128, 1536),
  1, &conv2d_5_output_array, &conv2d_5_output_array_intq)

/* Tensor #27 */
AI_TENSOR_OBJ_DECLARE(
  conv2d_12_weights, AI_STATIC,
  27, 0x1,
  AI_SHAPE_INIT(4, 128, 3, 3, 1), AI_STRIDE_INIT(4, 1, 1, 128, 384),
  1, &conv2d_12_weights_array, &conv2d_12_weights_array_intq)

/* Tensor #28 */
AI_TENSOR_OBJ_DECLARE(
  conv2d_6_output, AI_STATIC,
  28, 0x1,
  AI_SHAPE_INIT(4, 1, 256, 12, 12), AI_STRIDE_INIT(4, 1, 1, 256, 3072),
  1, &conv2d_6_output_array, &conv2d_6_output_array_intq)

/* Tensor #29 */
AI_TENSOR_OBJ_DECLARE(
  conv2d_7_output, AI_STATIC,
  29, 0x1,
  AI_SHAPE_INIT(4, 1, 256, 12, 12), AI_STRIDE_INIT(4, 1, 1, 256, 3072),
  1, &conv2d_7_output_array, &conv2d_7_output_array_intq)

/* Tensor #30 */
AI_TENSOR_OBJ_DECLARE(
  conv2d_12_bias, AI_STATIC,
  30, 0x0,
  AI_SHAPE_INIT(4, 1, 128, 1, 1), AI_STRIDE_INIT(4, 4, 4, 512, 512),
  1, &conv2d_12_bias_array, NULL)

/* Tensor #31 */
AI_TENSOR_OBJ_DECLARE(
  conv2d_8_output, AI_STATIC,
  31, 0x1,
  AI_SHAPE_INIT(4, 1, 256, 12, 12), AI_STRIDE_INIT(4, 1, 1, 256, 3072),
  1, &conv2d_8_output_array, &conv2d_8_output_array_intq)

/* Tensor #32 */
AI_TENSOR_OBJ_DECLARE(
  conv2d_10_output, AI_STATIC,
  32, 0x1,
  AI_SHAPE_INIT(4, 1, 256, 12, 12), AI_STRIDE_INIT(4, 1, 1, 256, 3072),
  1, &conv2d_10_output_array, &conv2d_10_output_array_intq)

/* Tensor #33 */
AI_TENSOR_OBJ_DECLARE(
  conv2d_13_weights, AI_STATIC,
  33, 0x1,
  AI_SHAPE_INIT(4, 128, 1, 1, 256), AI_STRIDE_INIT(4, 1, 128, 128, 128),
  1, &conv2d_13_weights_array, &conv2d_13_weights_array_intq)

/* Tensor #34 */
AI_TENSOR_OBJ_DECLARE(
  conv2d_11_output, AI_STATIC,
  34, 0x1,
  AI_SHAPE_INIT(4, 1, 128, 12, 12), AI_STRIDE_INIT(4, 1, 1, 128, 1536),
  1, &conv2d_11_output_array, &conv2d_11_output_array_intq)

/* Tensor #35 */
AI_TENSOR_OBJ_DECLARE(
  conv2d_12_output, AI_STATIC,
  35, 0x1,
  AI_SHAPE_INIT(4, 1, 128, 12, 12), AI_STRIDE_INIT(4, 1, 1, 128, 1536),
  1, &conv2d_12_output_array, &conv2d_12_output_array_intq)

/* Tensor #36 */
AI_TENSOR_OBJ_DECLARE(
  conv2d_13_bias, AI_STATIC,
  36, 0x0,
  AI_SHAPE_INIT(4, 1, 256, 1, 1), AI_STRIDE_INIT(4, 4, 4, 1024, 1024),
  1, &conv2d_13_bias_array, NULL)

/* Tensor #37 */
AI_TENSOR_OBJ_DECLARE(
  conv2d_13_output, AI_STATIC,
  37, 0x1,
  AI_SHAPE_INIT(4, 1, 256, 12, 12), AI_STRIDE_INIT(4, 1, 1, 256, 3072),
  1, &conv2d_13_output_array, &conv2d_13_output_array_intq)

/* Tensor #38 */
AI_TENSOR_OBJ_DECLARE(
  conv2d_14_output, AI_STATIC,
  38, 0x1,
  AI_SHAPE_INIT(4, 1, 30, 12, 12), AI_STRIDE_INIT(4, 1, 1, 30, 360),
  1, &conv2d_14_output_array, &conv2d_14_output_array_intq)

/* Tensor #39 */
AI_TENSOR_OBJ_DECLARE(
  conv2d_14_weights, AI_STATIC,
  39, 0x1,
  AI_SHAPE_INIT(4, 256, 1, 1, 30), AI_STRIDE_INIT(4, 1, 256, 256, 256),
  1, &conv2d_14_weights_array, &conv2d_14_weights_array_intq)

/* Tensor #40 */
AI_TENSOR_OBJ_DECLARE(
  conversion_15_output, AI_STATIC,
  40, 0x0,
  AI_SHAPE_INIT(4, 1, 30, 12, 12), AI_STRIDE_INIT(4, 4, 4, 120, 1440),
  1, &conversion_15_output_array, NULL)

/* Tensor #41 */
AI_TENSOR_OBJ_DECLARE(
  conv2d_14_bias, AI_STATIC,
  41, 0x0,
  AI_SHAPE_INIT(4, 1, 30, 1, 1), AI_STRIDE_INIT(4, 4, 4, 120, 120),
  1, &conv2d_14_bias_array, NULL)

/* Tensor #42 */
AI_TENSOR_OBJ_DECLARE(
  conv2d_1_scratch0, AI_STATIC,
  42, 0x0,
  AI_SHAPE_INIT(4, 1, 1196, 1, 1), AI_STRIDE_INIT(4, 1, 1, 1196, 1196),
  1, &conv2d_1_scratch0_array, NULL)

/* Tensor #43 */
AI_TENSOR_OBJ_DECLARE(
  conv2d_2_scratch0, AI_STATIC,
  43, 0x0,
  AI_SHAPE_INIT(4, 1, 6016, 1, 1), AI_STRIDE_INIT(4, 1, 1, 6016, 6016),
  1, &conv2d_2_scratch0_array, NULL)

/* Tensor #44 */
AI_TENSOR_OBJ_DECLARE(
  conv2d_3_scratch0, AI_STATIC,
  44, 0x0,
  AI_SHAPE_INIT(4, 1, 6912, 1, 1), AI_STRIDE_INIT(4, 1, 1, 6912, 6912),
  1, &conv2d_3_scratch0_array, NULL)

/* Tensor #45 */
AI_TENSOR_OBJ_DECLARE(
  conv2d_4_scratch0, AI_STATIC,
  45, 0x0,
  AI_SHAPE_INIT(4, 1, 8704, 1, 1), AI_STRIDE_INIT(4, 1, 1, 8704, 8704),
  1, &conv2d_4_scratch0_array, NULL)

/* Tensor #46 */
AI_TENSOR_OBJ_DECLARE(
  conv2d_5_scratch0, AI_STATIC,
  46, 0x0,
  AI_SHAPE_INIT(4, 1, 4737, 1, 1), AI_STRIDE_INIT(4, 1, 1, 4737, 4737),
  1, &conv2d_5_scratch0_array, NULL)

/* Tensor #47 */
AI_TENSOR_OBJ_DECLARE(
  conv2d_1_weights, AI_STATIC,
  47, 0x1,
  AI_SHAPE_INIT(4, 3, 3, 3, 16), AI_STRIDE_INIT(4, 1, 3, 9, 27),
  1, &conv2d_1_weights_array, &conv2d_1_weights_array_intq)

/* Tensor #48 */
AI_TENSOR_OBJ_DECLARE(
  conv2d_6_scratch0, AI_STATIC,
  48, 0x0,
  AI_SHAPE_INIT(4, 1, 3072, 1, 1), AI_STRIDE_INIT(4, 1, 1, 3072, 3072),
  1, &conv2d_6_scratch0_array, NULL)

/* Tensor #49 */
AI_TENSOR_OBJ_DECLARE(
  conv2d_1_bias, AI_STATIC,
  49, 0x0,
  AI_SHAPE_INIT(4, 1, 16, 1, 1), AI_STRIDE_INIT(4, 4, 4, 64, 64),
  1, &conv2d_1_bias_array, NULL)

/* Tensor #50 */
AI_TENSOR_OBJ_DECLARE(
  conv2d_7_scratch0, AI_STATIC,
  50, 0x0,
  AI_SHAPE_INIT(4, 1, 9473, 1, 1), AI_STRIDE_INIT(4, 1, 1, 9473, 9473),
  1, &conv2d_7_scratch0_array, NULL)

/* Tensor #51 */
AI_TENSOR_OBJ_DECLARE(
  conv2d_2_weights, AI_STATIC,
  51, 0x1,
  AI_SHAPE_INIT(4, 16, 3, 3, 32), AI_STRIDE_INIT(4, 1, 16, 48, 144),
  1, &conv2d_2_weights_array, &conv2d_2_weights_array_intq)

/* Tensor #52 */
AI_TENSOR_OBJ_DECLARE(
  conv2d_2_bias, AI_STATIC,
  52, 0x0,
  AI_SHAPE_INIT(4, 1, 32, 1, 1), AI_STRIDE_INIT(4, 4, 4, 128, 128),
  1, &conv2d_2_bias_array, NULL)

/* Tensor #53 */
AI_TENSOR_OBJ_DECLARE(
  conv2d_8_scratch0, AI_STATIC,
  53, 0x0,
  AI_SHAPE_INIT(4, 1, 3584, 1, 1), AI_STRIDE_INIT(4, 1, 1, 3584, 3584),
  1, &conv2d_8_scratch0_array, NULL)

/* Tensor #54 */
AI_TENSOR_OBJ_DECLARE(
  conv2d_3_weights, AI_STATIC,
  54, 0x1,
  AI_SHAPE_INIT(4, 32, 3, 3, 64), AI_STRIDE_INIT(4, 1, 32, 96, 288),
  1, &conv2d_3_weights_array, &conv2d_3_weights_array_intq)

/* Tensor #55 */
AI_TENSOR_OBJ_DECLARE(
  conv2d_8_scratch1, AI_STATIC,
  55, 0x1,
  AI_SHAPE_INIT(4, 1, 256, 12, 2), AI_STRIDE_INIT(4, 1, 1, 256, 3072),
  1, &conv2d_8_scratch1_array, &conv2d_8_scratch1_array_intq)

/* Tensor #56 */
AI_TENSOR_OBJ_DECLARE(
  conv2d_3_bias, AI_STATIC,
  56, 0x0,
  AI_SHAPE_INIT(4, 1, 64, 1, 1), AI_STRIDE_INIT(4, 4, 4, 256, 256),
  1, &conv2d_3_bias_array, NULL)

/* Tensor #57 */
AI_TENSOR_OBJ_DECLARE(
  conv2d_10_scratch0, AI_STATIC,
  57, 0x0,
  AI_SHAPE_INIT(4, 1, 9473, 1, 1), AI_STRIDE_INIT(4, 1, 1, 9473, 9473),
  1, &conv2d_10_scratch0_array, NULL)



/**  Layer declarations section  **********************************************/


AI_TENSOR_CHAIN_OBJ_DECLARE(
  conversion_15_chain, AI_STATIC_CONST, 4,
  AI_TENSOR_LIST_OBJ_INIT(AI_FLAG_NONE, 1, &conv2d_14_output),
  AI_TENSOR_LIST_OBJ_INIT(AI_FLAG_NONE, 1, &conversion_15_output),
  AI_TENSOR_LIST_OBJ_EMPTY,
  AI_TENSOR_LIST_OBJ_EMPTY
)

AI_LAYER_OBJ_DECLARE(
  conversion_15_layer, 15,
  NL_TYPE, 0x0, NULL,
  nl, node_convert,
  &conversion_15_chain,
  NULL, &conversion_15_layer, AI_STATIC, 
)

AI_TENSOR_CHAIN_OBJ_DECLARE(
  conv2d_14_chain, AI_STATIC_CONST, 4,
  AI_TENSOR_LIST_OBJ_INIT(AI_FLAG_NONE, 1, &conv2d_13_output),
  AI_TENSOR_LIST_OBJ_INIT(AI_FLAG_NONE, 1, &conv2d_14_output),
  AI_TENSOR_LIST_OBJ_INIT(AI_FLAG_NONE, 3, &conv2d_14_weights, &conv2d_14_bias, NULL),
  AI_TENSOR_LIST_OBJ_INIT(AI_FLAG_NONE, 1, &conv2d_14_scratch0)
)

AI_LAYER_OBJ_DECLARE(
  conv2d_14_layer, 14,
  CONV2D_TYPE, 0x0, NULL,
  conv2d, forward_pw_sssa8_ch,
  &conv2d_14_chain,
  NULL, &conversion_15_layer, AI_STATIC, 
  .groups = 1, 
  .nl_func = NULL, 
  .filter_stride = AI_SHAPE_2D_INIT(1, 1), 
  .dilation = AI_SHAPE_2D_INIT(1, 1), 
  .filter_pad = AI_SHAPE_INIT(4, 0, 0, 0, 0), 
)

AI_TENSOR_CHAIN_OBJ_DECLARE(
  conv2d_13_chain, AI_STATIC_CONST, 4,
  AI_TENSOR_LIST_OBJ_INIT(AI_FLAG_NONE, 1, &conv2d_12_output),
  AI_TENSOR_LIST_OBJ_INIT(AI_FLAG_NONE, 1, &conv2d_13_output),
  AI_TENSOR_LIST_OBJ_INIT(AI_FLAG_NONE, 3, &conv2d_13_weights, &conv2d_13_bias, NULL),
  AI_TENSOR_LIST_OBJ_INIT(AI_FLAG_NONE, 1, &conv2d_13_scratch0)
)

AI_LAYER_OBJ_DECLARE(
  conv2d_13_layer, 13,
  CONV2D_TYPE, 0x0, NULL,
  conv2d, forward_pw_sssa8_ch,
  &conv2d_13_chain,
  NULL, &conv2d_14_layer, AI_STATIC, 
  .groups = 1, 
  .nl_func = NULL, 
  .filter_stride = AI_SHAPE_2D_INIT(1, 1), 
  .dilation = AI_SHAPE_2D_INIT(1, 1), 
  .filter_pad = AI_SHAPE_INIT(4, 0, 0, 0, 0), 
)

AI_TENSOR_CHAIN_OBJ_DECLARE(
  conv2d_12_chain, AI_STATIC_CONST, 4,
  AI_TENSOR_LIST_OBJ_INIT(AI_FLAG_NONE, 1, &conv2d_11_output),
  AI_TENSOR_LIST_OBJ_INIT(AI_FLAG_NONE, 1, &conv2d_12_output),
  AI_TENSOR_LIST_OBJ_INIT(AI_FLAG_NONE, 3, &conv2d_12_weights, &conv2d_12_bias, NULL),
  AI_TENSOR_LIST_OBJ_INIT(AI_FLAG_NONE, 1, &conv2d_12_scratch0)
)

AI_LAYER_OBJ_DECLARE(
  conv2d_12_layer, 12,
  CONV2D_TYPE, 0x0, NULL,
  conv2d, forward_dw_sssa8_ch,
  &conv2d_12_chain,
  NULL, &conv2d_13_layer, AI_STATIC, 
  .groups = 128, 
  .nl_func = NULL, 
  .filter_stride = AI_SHAPE_2D_INIT(1, 1), 
  .dilation = AI_SHAPE_2D_INIT(1, 1), 
  .filter_pad = AI_SHAPE_INIT(4, 1, 1, 1, 1), 
)

AI_TENSOR_CHAIN_OBJ_DECLARE(
  conv2d_11_chain, AI_STATIC_CONST, 4,
  AI_TENSOR_LIST_OBJ_INIT(AI_FLAG_NONE, 1, &conv2d_10_output),
  AI_TENSOR_LIST_OBJ_INIT(AI_FLAG_NONE, 1, &conv2d_11_output),
  AI_TENSOR_LIST_OBJ_INIT(AI_FLAG_NONE, 3, &conv2d_11_weights, &conv2d_11_bias, NULL),
  AI_TENSOR_LIST_OBJ_INIT(AI_FLAG_NONE, 1, &conv2d_11_scratch0)
)

AI_LAYER_OBJ_DECLARE(
  conv2d_11_layer, 11,
  CONV2D_TYPE, 0x0, NULL,
  conv2d, forward_pw_sssa8_ch,
  &conv2d_11_chain,
  NULL, &conv2d_12_layer, AI_STATIC, 
  .groups = 1, 
  .nl_func = NULL, 
  .filter_stride = AI_SHAPE_2D_INIT(1, 1), 
  .dilation = AI_SHAPE_2D_INIT(1, 1), 
  .filter_pad = AI_SHAPE_INIT(4, 0, 0, 0, 0), 
)

AI_TENSOR_CHAIN_OBJ_DECLARE(
  conv2d_10_chain, AI_STATIC_CONST, 4,
  AI_TENSOR_LIST_OBJ_INIT(AI_FLAG_NONE, 1, &conv2d_8_output),
  AI_TENSOR_LIST_OBJ_INIT(AI_FLAG_NONE, 1, &conv2d_10_output),
  AI_TENSOR_LIST_OBJ_INIT(AI_FLAG_NONE, 3, &conv2d_10_weights, &conv2d_10_bias, NULL),
  AI_TENSOR_LIST_OBJ_INIT(AI_FLAG_NONE, 1, &conv2d_10_scratch0)
)

AI_LAYER_OBJ_DECLARE(
  conv2d_10_layer, 10,
  CONV2D_TYPE, 0x0, NULL,
  conv2d, forward_dw_sssa8_ch,
  &conv2d_10_chain,
  NULL, &conv2d_11_layer, AI_STATIC, 
  .groups = 256, 
  .nl_func = NULL, 
  .filter_stride = AI_SHAPE_2D_INIT(1, 1), 
  .dilation = AI_SHAPE_2D_INIT(1, 1), 
  .filter_pad = AI_SHAPE_INIT(4, 1, 1, 1, 1), 
)

AI_TENSOR_CHAIN_OBJ_DECLARE(
  conv2d_8_chain, AI_STATIC_CONST, 4,
  AI_TENSOR_LIST_OBJ_INIT(AI_FLAG_NONE, 1, &conv2d_7_output),
  AI_TENSOR_LIST_OBJ_INIT(AI_FLAG_NONE, 1, &conv2d_8_output),
  AI_TENSOR_LIST_OBJ_INIT(AI_FLAG_NONE, 3, &conv2d_8_weights, &conv2d_8_bias, NULL),
  AI_TENSOR_LIST_OBJ_INIT(AI_FLAG_NONE, 2, &conv2d_8_scratch0, &conv2d_8_scratch1)
)

AI_LAYER_OBJ_DECLARE(
  conv2d_8_layer, 9,
  OPTIMIZED_CONV2D_TYPE, 0x0, NULL,
  conv2d_nl_pool, forward_pw_sssa8_ch_nl_pool,
  &conv2d_8_chain,
  NULL, &conv2d_10_layer, AI_STATIC, 
  .groups = 1, 
  .nl_func = NULL, 
  .filter_stride = AI_SHAPE_2D_INIT(1, 1), 
  .dilation = AI_SHAPE_2D_INIT(1, 1), 
  .filter_pad = AI_SHAPE_INIT(4, 0, 0, 0, 0), 
  .pool_size = AI_SHAPE_2D_INIT(2, 2), 
  .pool_stride = AI_SHAPE_2D_INIT(1, 1), 
  .pool_pad = AI_SHAPE_INIT(4, 0, 0, 1, 1), 
  .pool_func = pool_func_mp_array_integer_INT8, 
)

AI_TENSOR_CHAIN_OBJ_DECLARE(
  conv2d_7_chain, AI_STATIC_CONST, 4,
  AI_TENSOR_LIST_OBJ_INIT(AI_FLAG_NONE, 1, &conv2d_6_output),
  AI_TENSOR_LIST_OBJ_INIT(AI_FLAG_NONE, 1, &conv2d_7_output),
  AI_TENSOR_LIST_OBJ_INIT(AI_FLAG_NONE, 3, &conv2d_7_weights, &conv2d_7_bias, NULL),
  AI_TENSOR_LIST_OBJ_INIT(AI_FLAG_NONE, 1, &conv2d_7_scratch0)
)

AI_LAYER_OBJ_DECLARE(
  conv2d_7_layer, 7,
  CONV2D_TYPE, 0x0, NULL,
  conv2d, forward_dw_sssa8_ch,
  &conv2d_7_chain,
  NULL, &conv2d_8_layer, AI_STATIC, 
  .groups = 256, 
  .nl_func = NULL, 
  .filter_stride = AI_SHAPE_2D_INIT(1, 1), 
  .dilation = AI_SHAPE_2D_INIT(1, 1), 
  .filter_pad = AI_SHAPE_INIT(4, 1, 1, 1, 1), 
)

AI_TENSOR_CHAIN_OBJ_DECLARE(
  conv2d_6_chain, AI_STATIC_CONST, 4,
  AI_TENSOR_LIST_OBJ_INIT(AI_FLAG_NONE, 1, &conv2d_5_output),
  AI_TENSOR_LIST_OBJ_INIT(AI_FLAG_NONE, 1, &conv2d_6_output),
  AI_TENSOR_LIST_OBJ_INIT(AI_FLAG_NONE, 3, &conv2d_6_weights, &conv2d_6_bias, NULL),
  AI_TENSOR_LIST_OBJ_INIT(AI_FLAG_NONE, 1, &conv2d_6_scratch0)
)

AI_LAYER_OBJ_DECLARE(
  conv2d_6_layer, 6,
  CONV2D_TYPE, 0x0, NULL,
  conv2d, forward_pw_sssa8_ch,
  &conv2d_6_chain,
  NULL, &conv2d_7_layer, AI_STATIC, 
  .groups = 1, 
  .nl_func = NULL, 
  .filter_stride = AI_SHAPE_2D_INIT(1, 1), 
  .dilation = AI_SHAPE_2D_INIT(1, 1), 
  .filter_pad = AI_SHAPE_INIT(4, 0, 0, 0, 0), 
)

AI_TENSOR_CHAIN_OBJ_DECLARE(
  conv2d_5_chain, AI_STATIC_CONST, 4,
  AI_TENSOR_LIST_OBJ_INIT(AI_FLAG_NONE, 1, &conv2d_4_output),
  AI_TENSOR_LIST_OBJ_INIT(AI_FLAG_NONE, 1, &conv2d_5_output),
  AI_TENSOR_LIST_OBJ_INIT(AI_FLAG_NONE, 3, &conv2d_5_weights, &conv2d_5_bias, NULL),
  AI_TENSOR_LIST_OBJ_INIT(AI_FLAG_NONE, 1, &conv2d_5_scratch0)
)

AI_LAYER_OBJ_DECLARE(
  conv2d_5_layer, 5,
  CONV2D_TYPE, 0x0, NULL,
  conv2d, forward_dw_sssa8_ch,
  &conv2d_5_chain,
  NULL, &conv2d_6_layer, AI_STATIC, 
  .groups = 128, 
  .nl_func = NULL, 
  .filter_stride = AI_SHAPE_2D_INIT(1, 1), 
  .dilation = AI_SHAPE_2D_INIT(1, 1), 
  .filter_pad = AI_SHAPE_INIT(4, 1, 1, 1, 1), 
)

AI_TENSOR_CHAIN_OBJ_DECLARE(
  conv2d_4_chain, AI_STATIC_CONST, 4,
  AI_TENSOR_LIST_OBJ_INIT(AI_FLAG_NONE, 1, &conv2d_4_pad_before_output),
  AI_TENSOR_LIST_OBJ_INIT(AI_FLAG_NONE, 1, &conv2d_4_output),
  AI_TENSOR_LIST_OBJ_INIT(AI_FLAG_NONE, 3, &conv2d_4_weights, &conv2d_4_bias, NULL),
  AI_TENSOR_LIST_OBJ_INIT(AI_FLAG_NONE, 1, &conv2d_4_scratch0)
)

AI_LAYER_OBJ_DECLARE(
  conv2d_4_layer, 4,
  CONV2D_TYPE, 0x0, NULL,
  conv2d, forward_conv2d_deep_sssa8_ch,
  &conv2d_4_chain,
  NULL, &conv2d_5_layer, AI_STATIC, 
  .groups = 1, 
  .nl_func = NULL, 
  .filter_stride = AI_SHAPE_2D_INIT(2, 2), 
  .dilation = AI_SHAPE_2D_INIT(1, 1), 
  .filter_pad = AI_SHAPE_INIT(4, 0, 0, 0, 0), 
)


AI_STATIC_CONST ai_i8 conv2d_4_pad_before_value_data[] = { -128 };
AI_ARRAY_OBJ_DECLARE(
    conv2d_4_pad_before_value, AI_ARRAY_FORMAT_S8,
    conv2d_4_pad_before_value_data, conv2d_4_pad_before_value_data, 1, AI_STATIC_CONST)
AI_TENSOR_CHAIN_OBJ_DECLARE(
  conv2d_4_pad_before_chain, AI_STATIC_CONST, 4,
  AI_TENSOR_LIST_OBJ_INIT(AI_FLAG_NONE, 1, &conv2d_3_output),
  AI_TENSOR_LIST_OBJ_INIT(AI_FLAG_NONE, 1, &conv2d_4_pad_before_output),
  AI_TENSOR_LIST_OBJ_EMPTY,
  AI_TENSOR_LIST_OBJ_EMPTY
)

AI_LAYER_OBJ_DECLARE(
  conv2d_4_pad_before_layer, 4,
  PAD_TYPE, 0x0, NULL,
  pad, forward_pad,
  &conv2d_4_pad_before_chain,
  NULL, &conv2d_4_layer, AI_STATIC, 
  .value = &conv2d_4_pad_before_value, 
  .mode = AI_PAD_CONSTANT, 
  .pads = AI_SHAPE_INIT(4, 0, 0, 2, 2), 
)

AI_TENSOR_CHAIN_OBJ_DECLARE(
  conv2d_3_chain, AI_STATIC_CONST, 4,
  AI_TENSOR_LIST_OBJ_INIT(AI_FLAG_NONE, 1, &conv2d_3_pad_before_output),
  AI_TENSOR_LIST_OBJ_INIT(AI_FLAG_NONE, 1, &conv2d_3_output),
  AI_TENSOR_LIST_OBJ_INIT(AI_FLAG_NONE, 3, &conv2d_3_weights, &conv2d_3_bias, NULL),
  AI_TENSOR_LIST_OBJ_INIT(AI_FLAG_NONE, 1, &conv2d_3_scratch0)
)

AI_LAYER_OBJ_DECLARE(
  conv2d_3_layer, 3,
  CONV2D_TYPE, 0x0, NULL,
  conv2d, forward_conv2d_deep_sssa8_ch,
  &conv2d_3_chain,
  NULL, &conv2d_4_pad_before_layer, AI_STATIC, 
  .groups = 1, 
  .nl_func = NULL, 
  .filter_stride = AI_SHAPE_2D_INIT(2, 2), 
  .dilation = AI_SHAPE_2D_INIT(1, 1), 
  .filter_pad = AI_SHAPE_INIT(4, 0, 0, 0, 0), 
)


AI_STATIC_CONST ai_i8 conv2d_3_pad_before_value_data[] = { -128 };
AI_ARRAY_OBJ_DECLARE(
    conv2d_3_pad_before_value, AI_ARRAY_FORMAT_S8,
    conv2d_3_pad_before_value_data, conv2d_3_pad_before_value_data, 1, AI_STATIC_CONST)
AI_TENSOR_CHAIN_OBJ_DECLARE(
  conv2d_3_pad_before_chain, AI_STATIC_CONST, 4,
  AI_TENSOR_LIST_OBJ_INIT(AI_FLAG_NONE, 1, &conv2d_2_output),
  AI_TENSOR_LIST_OBJ_INIT(AI_FLAG_NONE, 1, &conv2d_3_pad_before_output),
  AI_TENSOR_LIST_OBJ_EMPTY,
  AI_TENSOR_LIST_OBJ_EMPTY
)

AI_LAYER_OBJ_DECLARE(
  conv2d_3_pad_before_layer, 3,
  PAD_TYPE, 0x0, NULL,
  pad, forward_pad,
  &conv2d_3_pad_before_chain,
  NULL, &conv2d_3_layer, AI_STATIC, 
  .value = &conv2d_3_pad_before_value, 
  .mode = AI_PAD_CONSTANT, 
  .pads = AI_SHAPE_INIT(4, 0, 0, 2, 2), 
)

AI_TENSOR_CHAIN_OBJ_DECLARE(
  conv2d_2_chain, AI_STATIC_CONST, 4,
  AI_TENSOR_LIST_OBJ_INIT(AI_FLAG_NONE, 1, &conv2d_1_output),
  AI_TENSOR_LIST_OBJ_INIT(AI_FLAG_NONE, 1, &conv2d_2_output),
  AI_TENSOR_LIST_OBJ_INIT(AI_FLAG_NONE, 3, &conv2d_2_weights, &conv2d_2_bias, NULL),
  AI_TENSOR_LIST_OBJ_INIT(AI_FLAG_NONE, 1, &conv2d_2_scratch0)
)

AI_LAYER_OBJ_DECLARE(
  conv2d_2_layer, 2,
  CONV2D_TYPE, 0x0, NULL,
  conv2d, forward_conv2d_sssa8_ch,
  &conv2d_2_chain,
  NULL, &conv2d_3_pad_before_layer, AI_STATIC, 
  .groups = 1, 
  .nl_func = NULL, 
  .filter_stride = AI_SHAPE_2D_INIT(2, 2), 
  .dilation = AI_SHAPE_2D_INIT(1, 1), 
  .filter_pad = AI_SHAPE_INIT(4, 0, 0, 2, 2), 
)

AI_TENSOR_CHAIN_OBJ_DECLARE(
  conv2d_1_chain, AI_STATIC_CONST, 4,
  AI_TENSOR_LIST_OBJ_INIT(AI_FLAG_NONE, 1, &conversion_0_output),
  AI_TENSOR_LIST_OBJ_INIT(AI_FLAG_NONE, 1, &conv2d_1_output),
  AI_TENSOR_LIST_OBJ_INIT(AI_FLAG_NONE, 3, &conv2d_1_weights, &conv2d_1_bias, NULL),
  AI_TENSOR_LIST_OBJ_INIT(AI_FLAG_NONE, 1, &conv2d_1_scratch0)
)

AI_LAYER_OBJ_DECLARE(
  conv2d_1_layer, 1,
  OPTIMIZED_CONV2D_TYPE, 0x0, NULL,
  conv2d, forward_conv2d_rgb_sssa8_ch,
  &conv2d_1_chain,
  NULL, &conv2d_2_layer, AI_STATIC, 
  .groups = 1, 
  .nl_func = NULL, 
  .filter_stride = AI_SHAPE_2D_INIT(2, 2), 
  .dilation = AI_SHAPE_2D_INIT(1, 1), 
  .filter_pad = AI_SHAPE_INIT(4, 0, 0, 2, 2), 
)

AI_TENSOR_CHAIN_OBJ_DECLARE(
  conversion_0_chain, AI_STATIC_CONST, 4,
  AI_TENSOR_LIST_OBJ_INIT(AI_FLAG_NONE, 1, &serving_default_image_input0_output),
  AI_TENSOR_LIST_OBJ_INIT(AI_FLAG_NONE, 1, &conversion_0_output),
  AI_TENSOR_LIST_OBJ_EMPTY,
  AI_TENSOR_LIST_OBJ_EMPTY
)

AI_LAYER_OBJ_DECLARE(
  conversion_0_layer, 0,
  NL_TYPE, 0x0, NULL,
  nl, node_convert_integer,
  &conversion_0_chain,
  NULL, &conv2d_1_layer, AI_STATIC, 
)


#if (AI_TOOLS_API_VERSION < AI_TOOLS_API_VERSION_1_5)

AI_NETWORK_OBJ_DECLARE(
  AI_NET_OBJ_INSTANCE, AI_STATIC,
  AI_BUFFER_INIT(AI_FLAG_NONE,  AI_BUFFER_FORMAT_U8,
    AI_BUFFER_SHAPE_INIT(AI_SHAPE_BCWH, 4, 1, 283368, 1, 1),
    283368, NULL, NULL),
  AI_BUFFER_INIT(AI_FLAG_NONE,  AI_BUFFER_FORMAT_U8,
    AI_BUFFER_SHAPE_INIT(AI_SHAPE_BCWH, 4, 1, 155040, 1, 1),
    155040, NULL, NULL),
  AI_TENSOR_LIST_IO_OBJ_INIT(AI_FLAG_NONE, AI_AUTONOMOUSDRIVINGSYSTEM_NETWORK_IN_NUM, &serving_default_image_input0_output),
  AI_TENSOR_LIST_IO_OBJ_INIT(AI_FLAG_NONE, AI_AUTONOMOUSDRIVINGSYSTEM_NETWORK_OUT_NUM, &conversion_15_output),
  &conversion_0_layer, 0, NULL)

#else

AI_NETWORK_OBJ_DECLARE(
  AI_NET_OBJ_INSTANCE, AI_STATIC,
  AI_BUFFER_ARRAY_OBJ_INIT_STATIC(
  	AI_FLAG_NONE, 1,
    AI_BUFFER_INIT(AI_FLAG_NONE,  AI_BUFFER_FORMAT_U8,
      AI_BUFFER_SHAPE_INIT(AI_SHAPE_BCWH, 4, 1, 283368, 1, 1),
      283368, NULL, NULL)
  ),
  AI_BUFFER_ARRAY_OBJ_INIT_STATIC(
  	AI_FLAG_NONE, 1,
    AI_BUFFER_INIT(AI_FLAG_NONE,  AI_BUFFER_FORMAT_U8,
      AI_BUFFER_SHAPE_INIT(AI_SHAPE_BCWH, 4, 1, 155040, 1, 1),
      155040, NULL, NULL)
  ),
  AI_TENSOR_LIST_IO_OBJ_INIT(AI_FLAG_NONE, AI_AUTONOMOUSDRIVINGSYSTEM_NETWORK_IN_NUM, &serving_default_image_input0_output),
  AI_TENSOR_LIST_IO_OBJ_INIT(AI_FLAG_NONE, AI_AUTONOMOUSDRIVINGSYSTEM_NETWORK_OUT_NUM, &conversion_15_output),
  &conversion_0_layer, 0, NULL)

#endif	/*(AI_TOOLS_API_VERSION < AI_TOOLS_API_VERSION_1_5)*/


/******************************************************************************/
AI_DECLARE_STATIC
ai_bool autonomousdrivingsystem_network_configure_activations(
  ai_network* net_ctx, const ai_network_params* params)
{
  AI_ASSERT(net_ctx)

  if (ai_platform_get_activations_map(g_autonomousdrivingsystem_network_activations_map, 1, params)) {
    /* Updating activations (byte) offsets */
    
    serving_default_image_input0_output_array.data = AI_PTR(g_autonomousdrivingsystem_network_activations_map[0] + 39980);
    serving_default_image_input0_output_array.data_start = AI_PTR(g_autonomousdrivingsystem_network_activations_map[0] + 39980);
    
    conversion_0_output_array.data = AI_PTR(g_autonomousdrivingsystem_network_activations_map[0] + 39980);
    conversion_0_output_array.data_start = AI_PTR(g_autonomousdrivingsystem_network_activations_map[0] + 39980);
    
    conv2d_1_scratch0_array.data = AI_PTR(g_autonomousdrivingsystem_network_activations_map[0] + 150576);
    conv2d_1_scratch0_array.data_start = AI_PTR(g_autonomousdrivingsystem_network_activations_map[0] + 150576);
    
    conv2d_1_output_array.data = AI_PTR(g_autonomousdrivingsystem_network_activations_map[0] + 1568);
    conv2d_1_output_array.data_start = AI_PTR(g_autonomousdrivingsystem_network_activations_map[0] + 1568);
    
    conv2d_2_scratch0_array.data = AI_PTR(g_autonomousdrivingsystem_network_activations_map[0] + 149024);
    conv2d_2_scratch0_array.data_start = AI_PTR(g_autonomousdrivingsystem_network_activations_map[0] + 149024);
    
    conv2d_2_output_array.data = AI_PTR(g_autonomousdrivingsystem_network_activations_map[0] + 0);
    conv2d_2_output_array.data_start = AI_PTR(g_autonomousdrivingsystem_network_activations_map[0] + 0);
    
    conv2d_3_pad_before_output_array.data = AI_PTR(g_autonomousdrivingsystem_network_activations_map[0] + 73728);
    conv2d_3_pad_before_output_array.data_start = AI_PTR(g_autonomousdrivingsystem_network_activations_map[0] + 73728);
    
    conv2d_3_scratch0_array.data = AI_PTR(g_autonomousdrivingsystem_network_activations_map[0] + 0);
    conv2d_3_scratch0_array.data_start = AI_PTR(g_autonomousdrivingsystem_network_activations_map[0] + 0);
    
    conv2d_3_output_array.data = AI_PTR(g_autonomousdrivingsystem_network_activations_map[0] + 6912);
    conv2d_3_output_array.data_start = AI_PTR(g_autonomousdrivingsystem_network_activations_map[0] + 6912);
    
    conv2d_4_pad_before_output_array.data = AI_PTR(g_autonomousdrivingsystem_network_activations_map[0] + 43776);
    conv2d_4_pad_before_output_array.data_start = AI_PTR(g_autonomousdrivingsystem_network_activations_map[0] + 43776);
    
    conv2d_4_scratch0_array.data = AI_PTR(g_autonomousdrivingsystem_network_activations_map[0] + 0);
    conv2d_4_scratch0_array.data_start = AI_PTR(g_autonomousdrivingsystem_network_activations_map[0] + 0);
    
    conv2d_4_output_array.data = AI_PTR(g_autonomousdrivingsystem_network_activations_map[0] + 8704);
    conv2d_4_output_array.data_start = AI_PTR(g_autonomousdrivingsystem_network_activations_map[0] + 8704);
    
    conv2d_5_scratch0_array.data = AI_PTR(g_autonomousdrivingsystem_network_activations_map[0] + 0);
    conv2d_5_scratch0_array.data_start = AI_PTR(g_autonomousdrivingsystem_network_activations_map[0] + 0);
    
    conv2d_5_output_array.data = AI_PTR(g_autonomousdrivingsystem_network_activations_map[0] + 27136);
    conv2d_5_output_array.data_start = AI_PTR(g_autonomousdrivingsystem_network_activations_map[0] + 27136);
    
    conv2d_6_scratch0_array.data = AI_PTR(g_autonomousdrivingsystem_network_activations_map[0] + 0);
    conv2d_6_scratch0_array.data_start = AI_PTR(g_autonomousdrivingsystem_network_activations_map[0] + 0);
    
    conv2d_6_output_array.data = AI_PTR(g_autonomousdrivingsystem_network_activations_map[0] + 45568);
    conv2d_6_output_array.data_start = AI_PTR(g_autonomousdrivingsystem_network_activations_map[0] + 45568);
    
    conv2d_7_scratch0_array.data = AI_PTR(g_autonomousdrivingsystem_network_activations_map[0] + 0);
    conv2d_7_scratch0_array.data_start = AI_PTR(g_autonomousdrivingsystem_network_activations_map[0] + 0);
    
    conv2d_7_output_array.data = AI_PTR(g_autonomousdrivingsystem_network_activations_map[0] + 82432);
    conv2d_7_output_array.data_start = AI_PTR(g_autonomousdrivingsystem_network_activations_map[0] + 82432);
    
    conv2d_8_scratch0_array.data = AI_PTR(g_autonomousdrivingsystem_network_activations_map[0] + 0);
    conv2d_8_scratch0_array.data_start = AI_PTR(g_autonomousdrivingsystem_network_activations_map[0] + 0);
    
    conv2d_8_scratch1_array.data = AI_PTR(g_autonomousdrivingsystem_network_activations_map[0] + 3584);
    conv2d_8_scratch1_array.data_start = AI_PTR(g_autonomousdrivingsystem_network_activations_map[0] + 3584);
    
    conv2d_8_output_array.data = AI_PTR(g_autonomousdrivingsystem_network_activations_map[0] + 9728);
    conv2d_8_output_array.data_start = AI_PTR(g_autonomousdrivingsystem_network_activations_map[0] + 9728);
    
    conv2d_10_scratch0_array.data = AI_PTR(g_autonomousdrivingsystem_network_activations_map[0] + 0);
    conv2d_10_scratch0_array.data_start = AI_PTR(g_autonomousdrivingsystem_network_activations_map[0] + 0);
    
    conv2d_10_output_array.data = AI_PTR(g_autonomousdrivingsystem_network_activations_map[0] + 46592);
    conv2d_10_output_array.data_start = AI_PTR(g_autonomousdrivingsystem_network_activations_map[0] + 46592);
    
    conv2d_11_scratch0_array.data = AI_PTR(g_autonomousdrivingsystem_network_activations_map[0] + 0);
    conv2d_11_scratch0_array.data_start = AI_PTR(g_autonomousdrivingsystem_network_activations_map[0] + 0);
    
    conv2d_11_output_array.data = AI_PTR(g_autonomousdrivingsystem_network_activations_map[0] + 2304);
    conv2d_11_output_array.data_start = AI_PTR(g_autonomousdrivingsystem_network_activations_map[0] + 2304);
    
    conv2d_12_scratch0_array.data = AI_PTR(g_autonomousdrivingsystem_network_activations_map[0] + 20736);
    conv2d_12_scratch0_array.data_start = AI_PTR(g_autonomousdrivingsystem_network_activations_map[0] + 20736);
    
    conv2d_12_output_array.data = AI_PTR(g_autonomousdrivingsystem_network_activations_map[0] + 25476);
    conv2d_12_output_array.data_start = AI_PTR(g_autonomousdrivingsystem_network_activations_map[0] + 25476);
    
    conv2d_13_scratch0_array.data = AI_PTR(g_autonomousdrivingsystem_network_activations_map[0] + 0);
    conv2d_13_scratch0_array.data_start = AI_PTR(g_autonomousdrivingsystem_network_activations_map[0] + 0);
    
    conv2d_13_output_array.data = AI_PTR(g_autonomousdrivingsystem_network_activations_map[0] + 43908);
    conv2d_13_output_array.data_start = AI_PTR(g_autonomousdrivingsystem_network_activations_map[0] + 43908);
    
    conv2d_14_scratch0_array.data = AI_PTR(g_autonomousdrivingsystem_network_activations_map[0] + 0);
    conv2d_14_scratch0_array.data_start = AI_PTR(g_autonomousdrivingsystem_network_activations_map[0] + 0);
    
    conv2d_14_output_array.data = AI_PTR(g_autonomousdrivingsystem_network_activations_map[0] + 1324);
    conv2d_14_output_array.data_start = AI_PTR(g_autonomousdrivingsystem_network_activations_map[0] + 1324);
    
    conversion_15_output_array.data = AI_PTR(g_autonomousdrivingsystem_network_activations_map[0] + 5644);
    conversion_15_output_array.data_start = AI_PTR(g_autonomousdrivingsystem_network_activations_map[0] + 5644);
    
    return true;
  }
  AI_ERROR_TRAP(net_ctx, INIT_FAILED, NETWORK_ACTIVATIONS);
  return false;
}



/******************************************************************************/
AI_DECLARE_STATIC
ai_bool autonomousdrivingsystem_network_configure_weights(
  ai_network* net_ctx, const ai_network_params* params)
{
  AI_ASSERT(net_ctx)

  if (ai_platform_get_weights_map(g_autonomousdrivingsystem_network_weights_map, 1, params)) {
    /* Updating weights (byte) offsets */
    
    conv2d_4_weights_array.format |= AI_FMT_FLAG_CONST;
    conv2d_4_weights_array.data = AI_PTR(g_autonomousdrivingsystem_network_weights_map[0] + 0);
    conv2d_4_weights_array.data_start = AI_PTR(g_autonomousdrivingsystem_network_weights_map[0] + 0);
    
    conv2d_4_bias_array.format |= AI_FMT_FLAG_CONST;
    conv2d_4_bias_array.data = AI_PTR(g_autonomousdrivingsystem_network_weights_map[0] + 73728);
    conv2d_4_bias_array.data_start = AI_PTR(g_autonomousdrivingsystem_network_weights_map[0] + 73728);
    
    conv2d_5_weights_array.format |= AI_FMT_FLAG_CONST;
    conv2d_5_weights_array.data = AI_PTR(g_autonomousdrivingsystem_network_weights_map[0] + 74240);
    conv2d_5_weights_array.data_start = AI_PTR(g_autonomousdrivingsystem_network_weights_map[0] + 74240);
    
    conv2d_5_bias_array.format |= AI_FMT_FLAG_CONST;
    conv2d_5_bias_array.data = AI_PTR(g_autonomousdrivingsystem_network_weights_map[0] + 75392);
    conv2d_5_bias_array.data_start = AI_PTR(g_autonomousdrivingsystem_network_weights_map[0] + 75392);
    
    conv2d_6_weights_array.format |= AI_FMT_FLAG_CONST;
    conv2d_6_weights_array.data = AI_PTR(g_autonomousdrivingsystem_network_weights_map[0] + 75904);
    conv2d_6_weights_array.data_start = AI_PTR(g_autonomousdrivingsystem_network_weights_map[0] + 75904);
    
    conv2d_6_bias_array.format |= AI_FMT_FLAG_CONST;
    conv2d_6_bias_array.data = AI_PTR(g_autonomousdrivingsystem_network_weights_map[0] + 108672);
    conv2d_6_bias_array.data_start = AI_PTR(g_autonomousdrivingsystem_network_weights_map[0] + 108672);
    
    conv2d_7_weights_array.format |= AI_FMT_FLAG_CONST;
    conv2d_7_weights_array.data = AI_PTR(g_autonomousdrivingsystem_network_weights_map[0] + 109696);
    conv2d_7_weights_array.data_start = AI_PTR(g_autonomousdrivingsystem_network_weights_map[0] + 109696);
    
    conv2d_7_bias_array.format |= AI_FMT_FLAG_CONST;
    conv2d_7_bias_array.data = AI_PTR(g_autonomousdrivingsystem_network_weights_map[0] + 112000);
    conv2d_7_bias_array.data_start = AI_PTR(g_autonomousdrivingsystem_network_weights_map[0] + 112000);
    
    conv2d_8_weights_array.format |= AI_FMT_FLAG_CONST;
    conv2d_8_weights_array.data = AI_PTR(g_autonomousdrivingsystem_network_weights_map[0] + 113024);
    conv2d_8_weights_array.data_start = AI_PTR(g_autonomousdrivingsystem_network_weights_map[0] + 113024);
    
    conv2d_8_bias_array.format |= AI_FMT_FLAG_CONST;
    conv2d_8_bias_array.data = AI_PTR(g_autonomousdrivingsystem_network_weights_map[0] + 178560);
    conv2d_8_bias_array.data_start = AI_PTR(g_autonomousdrivingsystem_network_weights_map[0] + 178560);
    
    conv2d_10_weights_array.format |= AI_FMT_FLAG_CONST;
    conv2d_10_weights_array.data = AI_PTR(g_autonomousdrivingsystem_network_weights_map[0] + 179584);
    conv2d_10_weights_array.data_start = AI_PTR(g_autonomousdrivingsystem_network_weights_map[0] + 179584);
    
    conv2d_10_bias_array.format |= AI_FMT_FLAG_CONST;
    conv2d_10_bias_array.data = AI_PTR(g_autonomousdrivingsystem_network_weights_map[0] + 181888);
    conv2d_10_bias_array.data_start = AI_PTR(g_autonomousdrivingsystem_network_weights_map[0] + 181888);
    
    conv2d_11_weights_array.format |= AI_FMT_FLAG_CONST;
    conv2d_11_weights_array.data = AI_PTR(g_autonomousdrivingsystem_network_weights_map[0] + 182912);
    conv2d_11_weights_array.data_start = AI_PTR(g_autonomousdrivingsystem_network_weights_map[0] + 182912);
    
    conv2d_11_bias_array.format |= AI_FMT_FLAG_CONST;
    conv2d_11_bias_array.data = AI_PTR(g_autonomousdrivingsystem_network_weights_map[0] + 215680);
    conv2d_11_bias_array.data_start = AI_PTR(g_autonomousdrivingsystem_network_weights_map[0] + 215680);
    
    conv2d_12_weights_array.format |= AI_FMT_FLAG_CONST;
    conv2d_12_weights_array.data = AI_PTR(g_autonomousdrivingsystem_network_weights_map[0] + 216192);
    conv2d_12_weights_array.data_start = AI_PTR(g_autonomousdrivingsystem_network_weights_map[0] + 216192);
    
    conv2d_12_bias_array.format |= AI_FMT_FLAG_CONST;
    conv2d_12_bias_array.data = AI_PTR(g_autonomousdrivingsystem_network_weights_map[0] + 217344);
    conv2d_12_bias_array.data_start = AI_PTR(g_autonomousdrivingsystem_network_weights_map[0] + 217344);
    
    conv2d_13_weights_array.format |= AI_FMT_FLAG_CONST;
    conv2d_13_weights_array.data = AI_PTR(g_autonomousdrivingsystem_network_weights_map[0] + 217856);
    conv2d_13_weights_array.data_start = AI_PTR(g_autonomousdrivingsystem_network_weights_map[0] + 217856);
    
    conv2d_13_bias_array.format |= AI_FMT_FLAG_CONST;
    conv2d_13_bias_array.data = AI_PTR(g_autonomousdrivingsystem_network_weights_map[0] + 250624);
    conv2d_13_bias_array.data_start = AI_PTR(g_autonomousdrivingsystem_network_weights_map[0] + 250624);
    
    conv2d_14_weights_array.format |= AI_FMT_FLAG_CONST;
    conv2d_14_weights_array.data = AI_PTR(g_autonomousdrivingsystem_network_weights_map[0] + 251648);
    conv2d_14_weights_array.data_start = AI_PTR(g_autonomousdrivingsystem_network_weights_map[0] + 251648);
    
    conv2d_14_bias_array.format |= AI_FMT_FLAG_CONST;
    conv2d_14_bias_array.data = AI_PTR(g_autonomousdrivingsystem_network_weights_map[0] + 259328);
    conv2d_14_bias_array.data_start = AI_PTR(g_autonomousdrivingsystem_network_weights_map[0] + 259328);
    
    conv2d_1_weights_array.format |= AI_FMT_FLAG_CONST;
    conv2d_1_weights_array.data = AI_PTR(g_autonomousdrivingsystem_network_weights_map[0] + 259448);
    conv2d_1_weights_array.data_start = AI_PTR(g_autonomousdrivingsystem_network_weights_map[0] + 259448);
    
    conv2d_1_bias_array.format |= AI_FMT_FLAG_CONST;
    conv2d_1_bias_array.data = AI_PTR(g_autonomousdrivingsystem_network_weights_map[0] + 259880);
    conv2d_1_bias_array.data_start = AI_PTR(g_autonomousdrivingsystem_network_weights_map[0] + 259880);
    
    conv2d_2_weights_array.format |= AI_FMT_FLAG_CONST;
    conv2d_2_weights_array.data = AI_PTR(g_autonomousdrivingsystem_network_weights_map[0] + 259944);
    conv2d_2_weights_array.data_start = AI_PTR(g_autonomousdrivingsystem_network_weights_map[0] + 259944);
    
    conv2d_2_bias_array.format |= AI_FMT_FLAG_CONST;
    conv2d_2_bias_array.data = AI_PTR(g_autonomousdrivingsystem_network_weights_map[0] + 264552);
    conv2d_2_bias_array.data_start = AI_PTR(g_autonomousdrivingsystem_network_weights_map[0] + 264552);
    
    conv2d_3_weights_array.format |= AI_FMT_FLAG_CONST;
    conv2d_3_weights_array.data = AI_PTR(g_autonomousdrivingsystem_network_weights_map[0] + 264680);
    conv2d_3_weights_array.data_start = AI_PTR(g_autonomousdrivingsystem_network_weights_map[0] + 264680);
    
    conv2d_3_bias_array.format |= AI_FMT_FLAG_CONST;
    conv2d_3_bias_array.data = AI_PTR(g_autonomousdrivingsystem_network_weights_map[0] + 283112);
    conv2d_3_bias_array.data_start = AI_PTR(g_autonomousdrivingsystem_network_weights_map[0] + 283112);
    
    return true;
  }
  AI_ERROR_TRAP(net_ctx, INIT_FAILED, NETWORK_WEIGHTS);
  return false;
}


/**  PUBLIC APIs SECTION  *****************************************************/


AI_DEPRECATED
AI_API_ENTRY
ai_bool ai_autonomousdrivingsystem_network_get_info(
  ai_handle network, ai_network_report* report)
{
  ai_network* net_ctx = AI_NETWORK_ACQUIRE_CTX(network);

  if (report && net_ctx)
  {
    ai_network_report r = {
      .model_name        = AI_AUTONOMOUSDRIVINGSYSTEM_NETWORK_MODEL_NAME,
      .model_signature   = AI_AUTONOMOUSDRIVINGSYSTEM_NETWORK_MODEL_SIGNATURE,
      .model_datetime    = AI_TOOLS_DATE_TIME,
      
      .compile_datetime  = AI_TOOLS_COMPILE_TIME,
      
      .runtime_revision  = ai_platform_runtime_get_revision(),
      .runtime_version   = ai_platform_runtime_get_version(),

      .tool_revision     = AI_TOOLS_REVISION_ID,
      .tool_version      = {AI_TOOLS_VERSION_MAJOR, AI_TOOLS_VERSION_MINOR,
                            AI_TOOLS_VERSION_MICRO, 0x0},
      .tool_api_version  = AI_STRUCT_INIT,

      .api_version            = ai_platform_api_get_version(),
      .interface_api_version  = ai_platform_interface_api_get_version(),
      
      .n_macc            = 61905230,
      .n_inputs          = 0,
      .inputs            = NULL,
      .n_outputs         = 0,
      .outputs           = NULL,
      .params            = AI_STRUCT_INIT,
      .activations       = AI_STRUCT_INIT,
      .n_nodes           = 0,
      .signature         = 0x0,
    };

    if (!ai_platform_api_get_network_report(network, &r)) return false;

    *report = r;
    return true;
  }
  return false;
}


AI_API_ENTRY
ai_bool ai_autonomousdrivingsystem_network_get_report(
  ai_handle network, ai_network_report* report)
{
  ai_network* net_ctx = AI_NETWORK_ACQUIRE_CTX(network);

  if (report && net_ctx)
  {
    ai_network_report r = {
      .model_name        = AI_AUTONOMOUSDRIVINGSYSTEM_NETWORK_MODEL_NAME,
      .model_signature   = AI_AUTONOMOUSDRIVINGSYSTEM_NETWORK_MODEL_SIGNATURE,
      .model_datetime    = AI_TOOLS_DATE_TIME,
      
      .compile_datetime  = AI_TOOLS_COMPILE_TIME,
      
      .runtime_revision  = ai_platform_runtime_get_revision(),
      .runtime_version   = ai_platform_runtime_get_version(),

      .tool_revision     = AI_TOOLS_REVISION_ID,
      .tool_version      = {AI_TOOLS_VERSION_MAJOR, AI_TOOLS_VERSION_MINOR,
                            AI_TOOLS_VERSION_MICRO, 0x0},
      .tool_api_version  = AI_STRUCT_INIT,

      .api_version            = ai_platform_api_get_version(),
      .interface_api_version  = ai_platform_interface_api_get_version(),
      
      .n_macc            = 61905230,
      .n_inputs          = 0,
      .inputs            = NULL,
      .n_outputs         = 0,
      .outputs           = NULL,
      .map_signature     = AI_MAGIC_SIGNATURE,
      .map_weights       = AI_STRUCT_INIT,
      .map_activations   = AI_STRUCT_INIT,
      .n_nodes           = 0,
      .signature         = 0x0,
    };

    if (!ai_platform_api_get_network_report(network, &r)) return false;

    *report = r;
    return true;
  }
  return false;
}

AI_API_ENTRY
ai_error ai_autonomousdrivingsystem_network_get_error(ai_handle network)
{
  return ai_platform_network_get_error(network);
}

AI_API_ENTRY
ai_error ai_autonomousdrivingsystem_network_create(
  ai_handle* network, const ai_buffer* network_config)
{
  return ai_platform_network_create(
    network, network_config, 
    &AI_NET_OBJ_INSTANCE,
    AI_TOOLS_API_VERSION_MAJOR, AI_TOOLS_API_VERSION_MINOR, AI_TOOLS_API_VERSION_MICRO);
}

AI_API_ENTRY
ai_error ai_autonomousdrivingsystem_network_create_and_init(
  ai_handle* network, const ai_handle activations[], const ai_handle weights[])
{
    ai_error err;
    ai_network_params params;

    err = ai_autonomousdrivingsystem_network_create(network, AI_AUTONOMOUSDRIVINGSYSTEM_NETWORK_DATA_CONFIG);
    if (err.type != AI_ERROR_NONE)
        return err;
    if (ai_autonomousdrivingsystem_network_data_params_get(&params) != true) {
        err = ai_autonomousdrivingsystem_network_get_error(*network);
        return err;
    }
#if defined(AI_AUTONOMOUSDRIVINGSYSTEM_NETWORK_DATA_ACTIVATIONS_COUNT)
    if (activations) {
        /* set the addresses of the activations buffers */
        for (int idx=0;idx<params.map_activations.size;idx++)
            AI_BUFFER_ARRAY_ITEM_SET_ADDRESS(&params.map_activations, idx, activations[idx]);
    }
#endif
#if defined(AI_AUTONOMOUSDRIVINGSYSTEM_NETWORK_DATA_WEIGHTS_COUNT)
    if (weights) {
        /* set the addresses of the weight buffers */
        for (int idx=0;idx<params.map_weights.size;idx++)
            AI_BUFFER_ARRAY_ITEM_SET_ADDRESS(&params.map_weights, idx, weights[idx]);
    }
#endif
    if (ai_autonomousdrivingsystem_network_init(*network, &params) != true) {
        err = ai_autonomousdrivingsystem_network_get_error(*network);
    }
    return err;
}

AI_API_ENTRY
ai_buffer* ai_autonomousdrivingsystem_network_inputs_get(ai_handle network, ai_u16 *n_buffer)
{
  if (network == AI_HANDLE_NULL) {
    network = (ai_handle)&AI_NET_OBJ_INSTANCE;
    ((ai_network *)network)->magic = AI_MAGIC_CONTEXT_TOKEN;
  }
  return ai_platform_inputs_get(network, n_buffer);
}

AI_API_ENTRY
ai_buffer* ai_autonomousdrivingsystem_network_outputs_get(ai_handle network, ai_u16 *n_buffer)
{
  if (network == AI_HANDLE_NULL) {
    network = (ai_handle)&AI_NET_OBJ_INSTANCE;
    ((ai_network *)network)->magic = AI_MAGIC_CONTEXT_TOKEN;
  }
  return ai_platform_outputs_get(network, n_buffer);
}

AI_API_ENTRY
ai_handle ai_autonomousdrivingsystem_network_destroy(ai_handle network)
{
  return ai_platform_network_destroy(network);
}

AI_API_ENTRY
ai_bool ai_autonomousdrivingsystem_network_init(
  ai_handle network, const ai_network_params* params)
{
  ai_network* net_ctx = ai_platform_network_init(network, params);
  if (!net_ctx) return false;

  ai_bool ok = true;
  ok &= autonomousdrivingsystem_network_configure_weights(net_ctx, params);
  ok &= autonomousdrivingsystem_network_configure_activations(net_ctx, params);

  ok &= ai_platform_network_post_init(network);

  return ok;
}


AI_API_ENTRY
ai_i32 ai_autonomousdrivingsystem_network_run(
  ai_handle network, const ai_buffer* input, ai_buffer* output)
{
  return ai_platform_network_process(network, input, output);
}

AI_API_ENTRY
ai_i32 ai_autonomousdrivingsystem_network_forward(ai_handle network, const ai_buffer* input)
{
  return ai_platform_network_process(network, input, NULL);
}



#undef AI_AUTONOMOUSDRIVINGSYSTEM_NETWORK_MODEL_SIGNATURE
#undef AI_NET_OBJ_INSTANCE
#undef AI_TOOLS_DATE_TIME
#undef AI_TOOLS_COMPILE_TIME

